{
  "format": "layers-model",
  "generatedBy": "keras v2.4.0",
  "convertedBy": "TensorFlow.js Converter v2.3.0",
  "modelTopology": {
    "keras_version": "2.4.0",
    "backend": "tensorflow",
    "model_config": {
      "class_name": "Model",
      "config": {
        "name": "functional_33",
        "layers": [
          {
            "class_name": "InputLayer",
            "config": {
              "batch_input_shape": [
                null,
                224,
                224,
                3
              ],
              "dtype": "float32",
              "sparse": false,
              "ragged": false,
              "name": "input_19"
            },
            "name": "input_19",
            "inbound_nodes": []
          },
          {
            "class_name": "Model",
            "config": {
              "name": "functional_31",
              "layers": [
                {
                  "class_name": "InputLayer",
                  "config": {
                    "batch_input_shape": [
                      null,
                      224,
                      224,
                      3
                    ],
                    "dtype": "float32",
                    "sparse": false,
                    "ragged": false,
                    "name": "input_18"
                  },
                  "name": "input_18",
                  "inbound_nodes": []
                },
                {
                  "class_name": "Rescaling",
                  "config": {
                    "name": "rescaling_6",
                    "trainable": false,
                    "dtype": "float32",
                    "scale": 0.00392156862745098,
                    "offset": 0.0
                  },
                  "name": "rescaling_6",
                  "inbound_nodes": [
                    [
                      [
                        "input_18",
                        0,
                        0,
                        {}
                      ]
                    ]
                  ]
                },
                {
                  "class_name": "Normalization",
                  "config": {
                    "name": "normalization_6",
                    "trainable": false,
                    "dtype": "float32",
                    "axis": [
                      3
                    ]
                  },
                  "name": "normalization_6",
                  "inbound_nodes": [
                    [
                      [
                        "rescaling_6",
                        0,
                        0,
                        {}
                      ]
                    ]
                  ]
                },
                {
                  "class_name": "ZeroPadding2D",
                  "config": {
                    "name": "stem_conv_pad",
                    "trainable": false,
                    "dtype": "float32",
                    "padding": [
                      [
                        0,
                        1
                      ],
                      [
                        0,
                        1
                      ]
                    ],
                    "data_format": "channels_last"
                  },
                  "name": "stem_conv_pad",
                  "inbound_nodes": [
                    [
                      [
                        "normalization_6",
                        0,
                        0,
                        {}
                      ]
                    ]
                  ]
                },
                {
                  "class_name": "Conv2D",
                  "config": {
                    "name": "stem_conv",
                    "trainable": false,
                    "dtype": "float32",
                    "filters": 32,
                    "kernel_size": [
                      3,
                      3
                    ],
                    "strides": [
                      2,
                      2
                    ],
                    "padding": "valid",
                    "data_format": "channels_last",
                    "dilation_rate": [
                      1,
                      1
                    ],
                    "groups": 1,
                    "activation": "linear",
                    "use_bias": false,
                    "kernel_initializer": {
                      "class_name": "VarianceScaling",
                      "config": {
                        "scale": 2.0,
                        "mode": "fan_out",
                        "distribution": "truncated_normal",
                        "seed": null
                      }
                    },
                    "bias_initializer": {
                      "class_name": "Zeros",
                      "config": {}
                    },
                    "kernel_regularizer": null,
                    "bias_regularizer": null,
                    "activity_regularizer": null,
                    "kernel_constraint": null,
                    "bias_constraint": null
                  },
                  "name": "stem_conv",
                  "inbound_nodes": [
                    [
                      [
                        "stem_conv_pad",
                        0,
                        0,
                        {}
                      ]
                    ]
                  ]
                },
                {
                  "class_name": "BatchNormalization",
                  "config": {
                    "name": "stem_bn",
                    "trainable": false,
                    "dtype": "float32",
                    "axis": [
                      3
                    ],
                    "momentum": 0.99,
                    "epsilon": 0.001,
                    "center": true,
                    "scale": true,
                    "beta_initializer": {
                      "class_name": "Zeros",
                      "config": {}
                    },
                    "gamma_initializer": {
                      "class_name": "Ones",
                      "config": {}
                    },
                    "moving_mean_initializer": {
                      "class_name": "Zeros",
                      "config": {}
                    },
                    "moving_variance_initializer": {
                      "class_name": "Ones",
                      "config": {}
                    },
                    "beta_regularizer": null,
                    "gamma_regularizer": null,
                    "beta_constraint": null,
                    "gamma_constraint": null
                  },
                  "name": "stem_bn",
                  "inbound_nodes": [
                    [
                      [
                        "stem_conv",
                        0,
                        0,
                        {}
                      ]
                    ]
                  ]
                },
                {
                  "class_name": "Activation",
                  "config": {
                    "name": "stem_activation",
                    "trainable": false,
                    "dtype": "float32",
                    "activation": "swish"
                  },
                  "name": "stem_activation",
                  "inbound_nodes": [
                    [
                      [
                        "stem_bn",
                        0,
                        0,
                        {}
                      ]
                    ]
                  ]
                },
                {
                  "class_name": "DepthwiseConv2D",
                  "config": {
                    "name": "block1a_dwconv",
                    "trainable": false,
                    "dtype": "float32",
                    "kernel_size": [
                      3,
                      3
                    ],
                    "strides": [
                      1,
                      1
                    ],
                    "padding": "same",
                    "data_format": "channels_last",
                    "dilation_rate": [
                      1,
                      1
                    ],
                    "groups": 1,
                    "activation": "linear",
                    "use_bias": false,
                    "bias_initializer": {
                      "class_name": "Zeros",
                      "config": {}
                    },
                    "bias_regularizer": null,
                    "activity_regularizer": null,
                    "bias_constraint": null,
                    "depth_multiplier": 1,
                    "depthwise_initializer": {
                      "class_name": "VarianceScaling",
                      "config": {
                        "scale": 2.0,
                        "mode": "fan_out",
                        "distribution": "truncated_normal",
                        "seed": null
                      }
                    },
                    "depthwise_regularizer": null,
                    "depthwise_constraint": null
                  },
                  "name": "block1a_dwconv",
                  "inbound_nodes": [
                    [
                      [
                        "stem_activation",
                        0,
                        0,
                        {}
                      ]
                    ]
                  ]
                },
                {
                  "class_name": "BatchNormalization",
                  "config": {
                    "name": "block1a_bn",
                    "trainable": false,
                    "dtype": "float32",
                    "axis": [
                      3
                    ],
                    "momentum": 0.99,
                    "epsilon": 0.001,
                    "center": true,
                    "scale": true,
                    "beta_initializer": {
                      "class_name": "Zeros",
                      "config": {}
                    },
                    "gamma_initializer": {
                      "class_name": "Ones",
                      "config": {}
                    },
                    "moving_mean_initializer": {
                      "class_name": "Zeros",
                      "config": {}
                    },
                    "moving_variance_initializer": {
                      "class_name": "Ones",
                      "config": {}
                    },
                    "beta_regularizer": null,
                    "gamma_regularizer": null,
                    "beta_constraint": null,
                    "gamma_constraint": null
                  },
                  "name": "block1a_bn",
                  "inbound_nodes": [
                    [
                      [
                        "block1a_dwconv",
                        0,
                        0,
                        {}
                      ]
                    ]
                  ]
                },
                {
                  "class_name": "Activation",
                  "config": {
                    "name": "block1a_activation",
                    "trainable": false,
                    "dtype": "float32",
                    "activation": "swish"
                  },
                  "name": "block1a_activation",
                  "inbound_nodes": [
                    [
                      [
                        "block1a_bn",
                        0,
                        0,
                        {}
                      ]
                    ]
                  ]
                },
                {
                  "class_name": "GlobalAveragePooling2D",
                  "config": {
                    "name": "block1a_se_squeeze",
                    "trainable": false,
                    "dtype": "float32",
                    "data_format": "channels_last"
                  },
                  "name": "block1a_se_squeeze",
                  "inbound_nodes": [
                    [
                      [
                        "block1a_activation",
                        0,
                        0,
                        {}
                      ]
                    ]
                  ]
                },
                {
                  "class_name": "Reshape",
                  "config": {
                    "name": "block1a_se_reshape",
                    "trainable": false,
                    "dtype": "float32",
                    "target_shape": [
                      1,
                      1,
                      32
                    ]
                  },
                  "name": "block1a_se_reshape",
                  "inbound_nodes": [
                    [
                      [
                        "block1a_se_squeeze",
                        0,
                        0,
                        {}
                      ]
                    ]
                  ]
                },
                {
                  "class_name": "Conv2D",
                  "config": {
                    "name": "block1a_se_reduce",
                    "trainable": false,
                    "dtype": "float32",
                    "filters": 8,
                    "kernel_size": [
                      1,
                      1
                    ],
                    "strides": [
                      1,
                      1
                    ],
                    "padding": "same",
                    "data_format": "channels_last",
                    "dilation_rate": [
                      1,
                      1
                    ],
                    "groups": 1,
                    "activation": "swish",
                    "use_bias": true,
                    "kernel_initializer": {
                      "class_name": "VarianceScaling",
                      "config": {
                        "scale": 2.0,
                        "mode": "fan_out",
                        "distribution": "truncated_normal",
                        "seed": null
                      }
                    },
                    "bias_initializer": {
                      "class_name": "Zeros",
                      "config": {}
                    },
                    "kernel_regularizer": null,
                    "bias_regularizer": null,
                    "activity_regularizer": null,
                    "kernel_constraint": null,
                    "bias_constraint": null
                  },
                  "name": "block1a_se_reduce",
                  "inbound_nodes": [
                    [
                      [
                        "block1a_se_reshape",
                        0,
                        0,
                        {}
                      ]
                    ]
                  ]
                },
                {
                  "class_name": "Conv2D",
                  "config": {
                    "name": "block1a_se_expand",
                    "trainable": false,
                    "dtype": "float32",
                    "filters": 32,
                    "kernel_size": [
                      1,
                      1
                    ],
                    "strides": [
                      1,
                      1
                    ],
                    "padding": "same",
                    "data_format": "channels_last",
                    "dilation_rate": [
                      1,
                      1
                    ],
                    "groups": 1,
                    "activation": "sigmoid",
                    "use_bias": true,
                    "kernel_initializer": {
                      "class_name": "VarianceScaling",
                      "config": {
                        "scale": 2.0,
                        "mode": "fan_out",
                        "distribution": "truncated_normal",
                        "seed": null
                      }
                    },
                    "bias_initializer": {
                      "class_name": "Zeros",
                      "config": {}
                    },
                    "kernel_regularizer": null,
                    "bias_regularizer": null,
                    "activity_regularizer": null,
                    "kernel_constraint": null,
                    "bias_constraint": null
                  },
                  "name": "block1a_se_expand",
                  "inbound_nodes": [
                    [
                      [
                        "block1a_se_reduce",
                        0,
                        0,
                        {}
                      ]
                    ]
                  ]
                },
                {
                  "class_name": "Multiply",
                  "config": {
                    "name": "block1a_se_excite",
                    "trainable": false,
                    "dtype": "float32"
                  },
                  "name": "block1a_se_excite",
                  "inbound_nodes": [
                    [
                      [
                        "block1a_activation",
                        0,
                        0,
                        {}
                      ],
                      [
                        "block1a_se_expand",
                        0,
                        0,
                        {}
                      ]
                    ]
                  ]
                },
                {
                  "class_name": "Conv2D",
                  "config": {
                    "name": "block1a_project_conv",
                    "trainable": false,
                    "dtype": "float32",
                    "filters": 16,
                    "kernel_size": [
                      1,
                      1
                    ],
                    "strides": [
                      1,
                      1
                    ],
                    "padding": "same",
                    "data_format": "channels_last",
                    "dilation_rate": [
                      1,
                      1
                    ],
                    "groups": 1,
                    "activation": "linear",
                    "use_bias": false,
                    "kernel_initializer": {
                      "class_name": "VarianceScaling",
                      "config": {
                        "scale": 2.0,
                        "mode": "fan_out",
                        "distribution": "truncated_normal",
                        "seed": null
                      }
                    },
                    "bias_initializer": {
                      "class_name": "Zeros",
                      "config": {}
                    },
                    "kernel_regularizer": null,
                    "bias_regularizer": null,
                    "activity_regularizer": null,
                    "kernel_constraint": null,
                    "bias_constraint": null
                  },
                  "name": "block1a_project_conv",
                  "inbound_nodes": [
                    [
                      [
                        "block1a_se_excite",
                        0,
                        0,
                        {}
                      ]
                    ]
                  ]
                },
                {
                  "class_name": "BatchNormalization",
                  "config": {
                    "name": "block1a_project_bn",
                    "trainable": false,
                    "dtype": "float32",
                    "axis": [
                      3
                    ],
                    "momentum": 0.99,
                    "epsilon": 0.001,
                    "center": true,
                    "scale": true,
                    "beta_initializer": {
                      "class_name": "Zeros",
                      "config": {}
                    },
                    "gamma_initializer": {
                      "class_name": "Ones",
                      "config": {}
                    },
                    "moving_mean_initializer": {
                      "class_name": "Zeros",
                      "config": {}
                    },
                    "moving_variance_initializer": {
                      "class_name": "Ones",
                      "config": {}
                    },
                    "beta_regularizer": null,
                    "gamma_regularizer": null,
                    "beta_constraint": null,
                    "gamma_constraint": null
                  },
                  "name": "block1a_project_bn",
                  "inbound_nodes": [
                    [
                      [
                        "block1a_project_conv",
                        0,
                        0,
                        {}
                      ]
                    ]
                  ]
                },
                {
                  "class_name": "Conv2D",
                  "config": {
                    "name": "block2a_expand_conv",
                    "trainable": false,
                    "dtype": "float32",
                    "filters": 96,
                    "kernel_size": [
                      1,
                      1
                    ],
                    "strides": [
                      1,
                      1
                    ],
                    "padding": "same",
                    "data_format": "channels_last",
                    "dilation_rate": [
                      1,
                      1
                    ],
                    "groups": 1,
                    "activation": "linear",
                    "use_bias": false,
                    "kernel_initializer": {
                      "class_name": "VarianceScaling",
                      "config": {
                        "scale": 2.0,
                        "mode": "fan_out",
                        "distribution": "truncated_normal",
                        "seed": null
                      }
                    },
                    "bias_initializer": {
                      "class_name": "Zeros",
                      "config": {}
                    },
                    "kernel_regularizer": null,
                    "bias_regularizer": null,
                    "activity_regularizer": null,
                    "kernel_constraint": null,
                    "bias_constraint": null
                  },
                  "name": "block2a_expand_conv",
                  "inbound_nodes": [
                    [
                      [
                        "block1a_project_bn",
                        0,
                        0,
                        {}
                      ]
                    ]
                  ]
                },
                {
                  "class_name": "BatchNormalization",
                  "config": {
                    "name": "block2a_expand_bn",
                    "trainable": false,
                    "dtype": "float32",
                    "axis": [
                      3
                    ],
                    "momentum": 0.99,
                    "epsilon": 0.001,
                    "center": true,
                    "scale": true,
                    "beta_initializer": {
                      "class_name": "Zeros",
                      "config": {}
                    },
                    "gamma_initializer": {
                      "class_name": "Ones",
                      "config": {}
                    },
                    "moving_mean_initializer": {
                      "class_name": "Zeros",
                      "config": {}
                    },
                    "moving_variance_initializer": {
                      "class_name": "Ones",
                      "config": {}
                    },
                    "beta_regularizer": null,
                    "gamma_regularizer": null,
                    "beta_constraint": null,
                    "gamma_constraint": null
                  },
                  "name": "block2a_expand_bn",
                  "inbound_nodes": [
                    [
                      [
                        "block2a_expand_conv",
                        0,
                        0,
                        {}
                      ]
                    ]
                  ]
                },
                {
                  "class_name": "Activation",
                  "config": {
                    "name": "block2a_expand_activation",
                    "trainable": false,
                    "dtype": "float32",
                    "activation": "swish"
                  },
                  "name": "block2a_expand_activation",
                  "inbound_nodes": [
                    [
                      [
                        "block2a_expand_bn",
                        0,
                        0,
                        {}
                      ]
                    ]
                  ]
                },
                {
                  "class_name": "ZeroPadding2D",
                  "config": {
                    "name": "block2a_dwconv_pad",
                    "trainable": false,
                    "dtype": "float32",
                    "padding": [
                      [
                        0,
                        1
                      ],
                      [
                        0,
                        1
                      ]
                    ],
                    "data_format": "channels_last"
                  },
                  "name": "block2a_dwconv_pad",
                  "inbound_nodes": [
                    [
                      [
                        "block2a_expand_activation",
                        0,
                        0,
                        {}
                      ]
                    ]
                  ]
                },
                {
                  "class_name": "DepthwiseConv2D",
                  "config": {
                    "name": "block2a_dwconv",
                    "trainable": false,
                    "dtype": "float32",
                    "kernel_size": [
                      3,
                      3
                    ],
                    "strides": [
                      2,
                      2
                    ],
                    "padding": "valid",
                    "data_format": "channels_last",
                    "dilation_rate": [
                      1,
                      1
                    ],
                    "groups": 1,
                    "activation": "linear",
                    "use_bias": false,
                    "bias_initializer": {
                      "class_name": "Zeros",
                      "config": {}
                    },
                    "bias_regularizer": null,
                    "activity_regularizer": null,
                    "bias_constraint": null,
                    "depth_multiplier": 1,
                    "depthwise_initializer": {
                      "class_name": "VarianceScaling",
                      "config": {
                        "scale": 2.0,
                        "mode": "fan_out",
                        "distribution": "truncated_normal",
                        "seed": null
                      }
                    },
                    "depthwise_regularizer": null,
                    "depthwise_constraint": null
                  },
                  "name": "block2a_dwconv",
                  "inbound_nodes": [
                    [
                      [
                        "block2a_dwconv_pad",
                        0,
                        0,
                        {}
                      ]
                    ]
                  ]
                },
                {
                  "class_name": "BatchNormalization",
                  "config": {
                    "name": "block2a_bn",
                    "trainable": false,
                    "dtype": "float32",
                    "axis": [
                      3
                    ],
                    "momentum": 0.99,
                    "epsilon": 0.001,
                    "center": true,
                    "scale": true,
                    "beta_initializer": {
                      "class_name": "Zeros",
                      "config": {}
                    },
                    "gamma_initializer": {
                      "class_name": "Ones",
                      "config": {}
                    },
                    "moving_mean_initializer": {
                      "class_name": "Zeros",
                      "config": {}
                    },
                    "moving_variance_initializer": {
                      "class_name": "Ones",
                      "config": {}
                    },
                    "beta_regularizer": null,
                    "gamma_regularizer": null,
                    "beta_constraint": null,
                    "gamma_constraint": null
                  },
                  "name": "block2a_bn",
                  "inbound_nodes": [
                    [
                      [
                        "block2a_dwconv",
                        0,
                        0,
                        {}
                      ]
                    ]
                  ]
                },
                {
                  "class_name": "Activation",
                  "config": {
                    "name": "block2a_activation",
                    "trainable": false,
                    "dtype": "float32",
                    "activation": "swish"
                  },
                  "name": "block2a_activation",
                  "inbound_nodes": [
                    [
                      [
                        "block2a_bn",
                        0,
                        0,
                        {}
                      ]
                    ]
                  ]
                },
                {
                  "class_name": "GlobalAveragePooling2D",
                  "config": {
                    "name": "block2a_se_squeeze",
                    "trainable": false,
                    "dtype": "float32",
                    "data_format": "channels_last"
                  },
                  "name": "block2a_se_squeeze",
                  "inbound_nodes": [
                    [
                      [
                        "block2a_activation",
                        0,
                        0,
                        {}
                      ]
                    ]
                  ]
                },
                {
                  "class_name": "Reshape",
                  "config": {
                    "name": "block2a_se_reshape",
                    "trainable": false,
                    "dtype": "float32",
                    "target_shape": [
                      1,
                      1,
                      96
                    ]
                  },
                  "name": "block2a_se_reshape",
                  "inbound_nodes": [
                    [
                      [
                        "block2a_se_squeeze",
                        0,
                        0,
                        {}
                      ]
                    ]
                  ]
                },
                {
                  "class_name": "Conv2D",
                  "config": {
                    "name": "block2a_se_reduce",
                    "trainable": true,
                    "dtype": "float32",
                    "filters": 4,
                    "kernel_size": [
                      1,
                      1
                    ],
                    "strides": [
                      1,
                      1
                    ],
                    "padding": "same",
                    "data_format": "channels_last",
                    "dilation_rate": [
                      1,
                      1
                    ],
                    "groups": 1,
                    "activation": "swish",
                    "use_bias": true,
                    "kernel_initializer": {
                      "class_name": "VarianceScaling",
                      "config": {
                        "scale": 2.0,
                        "mode": "fan_out",
                        "distribution": "truncated_normal",
                        "seed": null
                      }
                    },
                    "bias_initializer": {
                      "class_name": "Zeros",
                      "config": {}
                    },
                    "kernel_regularizer": null,
                    "bias_regularizer": null,
                    "activity_regularizer": null,
                    "kernel_constraint": null,
                    "bias_constraint": null
                  },
                  "name": "block2a_se_reduce",
                  "inbound_nodes": [
                    [
                      [
                        "block2a_se_reshape",
                        0,
                        0,
                        {}
                      ]
                    ]
                  ]
                },
                {
                  "class_name": "Conv2D",
                  "config": {
                    "name": "block2a_se_expand",
                    "trainable": true,
                    "dtype": "float32",
                    "filters": 96,
                    "kernel_size": [
                      1,
                      1
                    ],
                    "strides": [
                      1,
                      1
                    ],
                    "padding": "same",
                    "data_format": "channels_last",
                    "dilation_rate": [
                      1,
                      1
                    ],
                    "groups": 1,
                    "activation": "sigmoid",
                    "use_bias": true,
                    "kernel_initializer": {
                      "class_name": "VarianceScaling",
                      "config": {
                        "scale": 2.0,
                        "mode": "fan_out",
                        "distribution": "truncated_normal",
                        "seed": null
                      }
                    },
                    "bias_initializer": {
                      "class_name": "Zeros",
                      "config": {}
                    },
                    "kernel_regularizer": null,
                    "bias_regularizer": null,
                    "activity_regularizer": null,
                    "kernel_constraint": null,
                    "bias_constraint": null
                  },
                  "name": "block2a_se_expand",
                  "inbound_nodes": [
                    [
                      [
                        "block2a_se_reduce",
                        0,
                        0,
                        {}
                      ]
                    ]
                  ]
                },
                {
                  "class_name": "Multiply",
                  "config": {
                    "name": "block2a_se_excite",
                    "trainable": true,
                    "dtype": "float32"
                  },
                  "name": "block2a_se_excite",
                  "inbound_nodes": [
                    [
                      [
                        "block2a_activation",
                        0,
                        0,
                        {}
                      ],
                      [
                        "block2a_se_expand",
                        0,
                        0,
                        {}
                      ]
                    ]
                  ]
                },
                {
                  "class_name": "Conv2D",
                  "config": {
                    "name": "block2a_project_conv",
                    "trainable": true,
                    "dtype": "float32",
                    "filters": 24,
                    "kernel_size": [
                      1,
                      1
                    ],
                    "strides": [
                      1,
                      1
                    ],
                    "padding": "same",
                    "data_format": "channels_last",
                    "dilation_rate": [
                      1,
                      1
                    ],
                    "groups": 1,
                    "activation": "linear",
                    "use_bias": false,
                    "kernel_initializer": {
                      "class_name": "VarianceScaling",
                      "config": {
                        "scale": 2.0,
                        "mode": "fan_out",
                        "distribution": "truncated_normal",
                        "seed": null
                      }
                    },
                    "bias_initializer": {
                      "class_name": "Zeros",
                      "config": {}
                    },
                    "kernel_regularizer": null,
                    "bias_regularizer": null,
                    "activity_regularizer": null,
                    "kernel_constraint": null,
                    "bias_constraint": null
                  },
                  "name": "block2a_project_conv",
                  "inbound_nodes": [
                    [
                      [
                        "block2a_se_excite",
                        0,
                        0,
                        {}
                      ]
                    ]
                  ]
                },
                {
                  "class_name": "BatchNormalization",
                  "config": {
                    "name": "block2a_project_bn",
                    "trainable": true,
                    "dtype": "float32",
                    "axis": [
                      3
                    ],
                    "momentum": 0.99,
                    "epsilon": 0.001,
                    "center": true,
                    "scale": true,
                    "beta_initializer": {
                      "class_name": "Zeros",
                      "config": {}
                    },
                    "gamma_initializer": {
                      "class_name": "Ones",
                      "config": {}
                    },
                    "moving_mean_initializer": {
                      "class_name": "Zeros",
                      "config": {}
                    },
                    "moving_variance_initializer": {
                      "class_name": "Ones",
                      "config": {}
                    },
                    "beta_regularizer": null,
                    "gamma_regularizer": null,
                    "beta_constraint": null,
                    "gamma_constraint": null
                  },
                  "name": "block2a_project_bn",
                  "inbound_nodes": [
                    [
                      [
                        "block2a_project_conv",
                        0,
                        0,
                        {}
                      ]
                    ]
                  ]
                },
                {
                  "class_name": "Conv2D",
                  "config": {
                    "name": "block2b_expand_conv",
                    "trainable": true,
                    "dtype": "float32",
                    "filters": 144,
                    "kernel_size": [
                      1,
                      1
                    ],
                    "strides": [
                      1,
                      1
                    ],
                    "padding": "same",
                    "data_format": "channels_last",
                    "dilation_rate": [
                      1,
                      1
                    ],
                    "groups": 1,
                    "activation": "linear",
                    "use_bias": false,
                    "kernel_initializer": {
                      "class_name": "VarianceScaling",
                      "config": {
                        "scale": 2.0,
                        "mode": "fan_out",
                        "distribution": "truncated_normal",
                        "seed": null
                      }
                    },
                    "bias_initializer": {
                      "class_name": "Zeros",
                      "config": {}
                    },
                    "kernel_regularizer": null,
                    "bias_regularizer": null,
                    "activity_regularizer": null,
                    "kernel_constraint": null,
                    "bias_constraint": null
                  },
                  "name": "block2b_expand_conv",
                  "inbound_nodes": [
                    [
                      [
                        "block2a_project_bn",
                        0,
                        0,
                        {}
                      ]
                    ]
                  ]
                },
                {
                  "class_name": "BatchNormalization",
                  "config": {
                    "name": "block2b_expand_bn",
                    "trainable": true,
                    "dtype": "float32",
                    "axis": [
                      3
                    ],
                    "momentum": 0.99,
                    "epsilon": 0.001,
                    "center": true,
                    "scale": true,
                    "beta_initializer": {
                      "class_name": "Zeros",
                      "config": {}
                    },
                    "gamma_initializer": {
                      "class_name": "Ones",
                      "config": {}
                    },
                    "moving_mean_initializer": {
                      "class_name": "Zeros",
                      "config": {}
                    },
                    "moving_variance_initializer": {
                      "class_name": "Ones",
                      "config": {}
                    },
                    "beta_regularizer": null,
                    "gamma_regularizer": null,
                    "beta_constraint": null,
                    "gamma_constraint": null
                  },
                  "name": "block2b_expand_bn",
                  "inbound_nodes": [
                    [
                      [
                        "block2b_expand_conv",
                        0,
                        0,
                        {}
                      ]
                    ]
                  ]
                },
                {
                  "class_name": "Activation",
                  "config": {
                    "name": "block2b_expand_activation",
                    "trainable": true,
                    "dtype": "float32",
                    "activation": "swish"
                  },
                  "name": "block2b_expand_activation",
                  "inbound_nodes": [
                    [
                      [
                        "block2b_expand_bn",
                        0,
                        0,
                        {}
                      ]
                    ]
                  ]
                },
                {
                  "class_name": "DepthwiseConv2D",
                  "config": {
                    "name": "block2b_dwconv",
                    "trainable": true,
                    "dtype": "float32",
                    "kernel_size": [
                      3,
                      3
                    ],
                    "strides": [
                      1,
                      1
                    ],
                    "padding": "same",
                    "data_format": "channels_last",
                    "dilation_rate": [
                      1,
                      1
                    ],
                    "groups": 1,
                    "activation": "linear",
                    "use_bias": false,
                    "bias_initializer": {
                      "class_name": "Zeros",
                      "config": {}
                    },
                    "bias_regularizer": null,
                    "activity_regularizer": null,
                    "bias_constraint": null,
                    "depth_multiplier": 1,
                    "depthwise_initializer": {
                      "class_name": "VarianceScaling",
                      "config": {
                        "scale": 2.0,
                        "mode": "fan_out",
                        "distribution": "truncated_normal",
                        "seed": null
                      }
                    },
                    "depthwise_regularizer": null,
                    "depthwise_constraint": null
                  },
                  "name": "block2b_dwconv",
                  "inbound_nodes": [
                    [
                      [
                        "block2b_expand_activation",
                        0,
                        0,
                        {}
                      ]
                    ]
                  ]
                },
                {
                  "class_name": "BatchNormalization",
                  "config": {
                    "name": "block2b_bn",
                    "trainable": true,
                    "dtype": "float32",
                    "axis": [
                      3
                    ],
                    "momentum": 0.99,
                    "epsilon": 0.001,
                    "center": true,
                    "scale": true,
                    "beta_initializer": {
                      "class_name": "Zeros",
                      "config": {}
                    },
                    "gamma_initializer": {
                      "class_name": "Ones",
                      "config": {}
                    },
                    "moving_mean_initializer": {
                      "class_name": "Zeros",
                      "config": {}
                    },
                    "moving_variance_initializer": {
                      "class_name": "Ones",
                      "config": {}
                    },
                    "beta_regularizer": null,
                    "gamma_regularizer": null,
                    "beta_constraint": null,
                    "gamma_constraint": null
                  },
                  "name": "block2b_bn",
                  "inbound_nodes": [
                    [
                      [
                        "block2b_dwconv",
                        0,
                        0,
                        {}
                      ]
                    ]
                  ]
                },
                {
                  "class_name": "Activation",
                  "config": {
                    "name": "block2b_activation",
                    "trainable": true,
                    "dtype": "float32",
                    "activation": "swish"
                  },
                  "name": "block2b_activation",
                  "inbound_nodes": [
                    [
                      [
                        "block2b_bn",
                        0,
                        0,
                        {}
                      ]
                    ]
                  ]
                },
                {
                  "class_name": "GlobalAveragePooling2D",
                  "config": {
                    "name": "block2b_se_squeeze",
                    "trainable": true,
                    "dtype": "float32",
                    "data_format": "channels_last"
                  },
                  "name": "block2b_se_squeeze",
                  "inbound_nodes": [
                    [
                      [
                        "block2b_activation",
                        0,
                        0,
                        {}
                      ]
                    ]
                  ]
                },
                {
                  "class_name": "Reshape",
                  "config": {
                    "name": "block2b_se_reshape",
                    "trainable": true,
                    "dtype": "float32",
                    "target_shape": [
                      1,
                      1,
                      144
                    ]
                  },
                  "name": "block2b_se_reshape",
                  "inbound_nodes": [
                    [
                      [
                        "block2b_se_squeeze",
                        0,
                        0,
                        {}
                      ]
                    ]
                  ]
                },
                {
                  "class_name": "Conv2D",
                  "config": {
                    "name": "block2b_se_reduce",
                    "trainable": true,
                    "dtype": "float32",
                    "filters": 6,
                    "kernel_size": [
                      1,
                      1
                    ],
                    "strides": [
                      1,
                      1
                    ],
                    "padding": "same",
                    "data_format": "channels_last",
                    "dilation_rate": [
                      1,
                      1
                    ],
                    "groups": 1,
                    "activation": "swish",
                    "use_bias": true,
                    "kernel_initializer": {
                      "class_name": "VarianceScaling",
                      "config": {
                        "scale": 2.0,
                        "mode": "fan_out",
                        "distribution": "truncated_normal",
                        "seed": null
                      }
                    },
                    "bias_initializer": {
                      "class_name": "Zeros",
                      "config": {}
                    },
                    "kernel_regularizer": null,
                    "bias_regularizer": null,
                    "activity_regularizer": null,
                    "kernel_constraint": null,
                    "bias_constraint": null
                  },
                  "name": "block2b_se_reduce",
                  "inbound_nodes": [
                    [
                      [
                        "block2b_se_reshape",
                        0,
                        0,
                        {}
                      ]
                    ]
                  ]
                },
                {
                  "class_name": "Conv2D",
                  "config": {
                    "name": "block2b_se_expand",
                    "trainable": true,
                    "dtype": "float32",
                    "filters": 144,
                    "kernel_size": [
                      1,
                      1
                    ],
                    "strides": [
                      1,
                      1
                    ],
                    "padding": "same",
                    "data_format": "channels_last",
                    "dilation_rate": [
                      1,
                      1
                    ],
                    "groups": 1,
                    "activation": "sigmoid",
                    "use_bias": true,
                    "kernel_initializer": {
                      "class_name": "VarianceScaling",
                      "config": {
                        "scale": 2.0,
                        "mode": "fan_out",
                        "distribution": "truncated_normal",
                        "seed": null
                      }
                    },
                    "bias_initializer": {
                      "class_name": "Zeros",
                      "config": {}
                    },
                    "kernel_regularizer": null,
                    "bias_regularizer": null,
                    "activity_regularizer": null,
                    "kernel_constraint": null,
                    "bias_constraint": null
                  },
                  "name": "block2b_se_expand",
                  "inbound_nodes": [
                    [
                      [
                        "block2b_se_reduce",
                        0,
                        0,
                        {}
                      ]
                    ]
                  ]
                },
                {
                  "class_name": "Multiply",
                  "config": {
                    "name": "block2b_se_excite",
                    "trainable": true,
                    "dtype": "float32"
                  },
                  "name": "block2b_se_excite",
                  "inbound_nodes": [
                    [
                      [
                        "block2b_activation",
                        0,
                        0,
                        {}
                      ],
                      [
                        "block2b_se_expand",
                        0,
                        0,
                        {}
                      ]
                    ]
                  ]
                },
                {
                  "class_name": "Conv2D",
                  "config": {
                    "name": "block2b_project_conv",
                    "trainable": true,
                    "dtype": "float32",
                    "filters": 24,
                    "kernel_size": [
                      1,
                      1
                    ],
                    "strides": [
                      1,
                      1
                    ],
                    "padding": "same",
                    "data_format": "channels_last",
                    "dilation_rate": [
                      1,
                      1
                    ],
                    "groups": 1,
                    "activation": "linear",
                    "use_bias": false,
                    "kernel_initializer": {
                      "class_name": "VarianceScaling",
                      "config": {
                        "scale": 2.0,
                        "mode": "fan_out",
                        "distribution": "truncated_normal",
                        "seed": null
                      }
                    },
                    "bias_initializer": {
                      "class_name": "Zeros",
                      "config": {}
                    },
                    "kernel_regularizer": null,
                    "bias_regularizer": null,
                    "activity_regularizer": null,
                    "kernel_constraint": null,
                    "bias_constraint": null
                  },
                  "name": "block2b_project_conv",
                  "inbound_nodes": [
                    [
                      [
                        "block2b_se_excite",
                        0,
                        0,
                        {}
                      ]
                    ]
                  ]
                },
                {
                  "class_name": "BatchNormalization",
                  "config": {
                    "name": "block2b_project_bn",
                    "trainable": true,
                    "dtype": "float32",
                    "axis": [
                      3
                    ],
                    "momentum": 0.99,
                    "epsilon": 0.001,
                    "center": true,
                    "scale": true,
                    "beta_initializer": {
                      "class_name": "Zeros",
                      "config": {}
                    },
                    "gamma_initializer": {
                      "class_name": "Ones",
                      "config": {}
                    },
                    "moving_mean_initializer": {
                      "class_name": "Zeros",
                      "config": {}
                    },
                    "moving_variance_initializer": {
                      "class_name": "Ones",
                      "config": {}
                    },
                    "beta_regularizer": null,
                    "gamma_regularizer": null,
                    "beta_constraint": null,
                    "gamma_constraint": null
                  },
                  "name": "block2b_project_bn",
                  "inbound_nodes": [
                    [
                      [
                        "block2b_project_conv",
                        0,
                        0,
                        {}
                      ]
                    ]
                  ]
                },
                {
                  "class_name": "Dropout",
                  "config": {
                    "name": "block2b_drop",
                    "trainable": true,
                    "dtype": "float32",
                    "rate": 0.025,
                    "noise_shape": [
                      null,
                      1,
                      1,
                      1
                    ],
                    "seed": null
                  },
                  "name": "block2b_drop",
                  "inbound_nodes": [
                    [
                      [
                        "block2b_project_bn",
                        0,
                        0,
                        {}
                      ]
                    ]
                  ]
                },
                {
                  "class_name": "Add",
                  "config": {
                    "name": "block2b_add",
                    "trainable": true,
                    "dtype": "float32"
                  },
                  "name": "block2b_add",
                  "inbound_nodes": [
                    [
                      [
                        "block2b_drop",
                        0,
                        0,
                        {}
                      ],
                      [
                        "block2a_project_bn",
                        0,
                        0,
                        {}
                      ]
                    ]
                  ]
                },
                {
                  "class_name": "Conv2D",
                  "config": {
                    "name": "block3a_expand_conv",
                    "trainable": true,
                    "dtype": "float32",
                    "filters": 144,
                    "kernel_size": [
                      1,
                      1
                    ],
                    "strides": [
                      1,
                      1
                    ],
                    "padding": "same",
                    "data_format": "channels_last",
                    "dilation_rate": [
                      1,
                      1
                    ],
                    "groups": 1,
                    "activation": "linear",
                    "use_bias": false,
                    "kernel_initializer": {
                      "class_name": "VarianceScaling",
                      "config": {
                        "scale": 2.0,
                        "mode": "fan_out",
                        "distribution": "truncated_normal",
                        "seed": null
                      }
                    },
                    "bias_initializer": {
                      "class_name": "Zeros",
                      "config": {}
                    },
                    "kernel_regularizer": null,
                    "bias_regularizer": null,
                    "activity_regularizer": null,
                    "kernel_constraint": null,
                    "bias_constraint": null
                  },
                  "name": "block3a_expand_conv",
                  "inbound_nodes": [
                    [
                      [
                        "block2b_add",
                        0,
                        0,
                        {}
                      ]
                    ]
                  ]
                },
                {
                  "class_name": "BatchNormalization",
                  "config": {
                    "name": "block3a_expand_bn",
                    "trainable": true,
                    "dtype": "float32",
                    "axis": [
                      3
                    ],
                    "momentum": 0.99,
                    "epsilon": 0.001,
                    "center": true,
                    "scale": true,
                    "beta_initializer": {
                      "class_name": "Zeros",
                      "config": {}
                    },
                    "gamma_initializer": {
                      "class_name": "Ones",
                      "config": {}
                    },
                    "moving_mean_initializer": {
                      "class_name": "Zeros",
                      "config": {}
                    },
                    "moving_variance_initializer": {
                      "class_name": "Ones",
                      "config": {}
                    },
                    "beta_regularizer": null,
                    "gamma_regularizer": null,
                    "beta_constraint": null,
                    "gamma_constraint": null
                  },
                  "name": "block3a_expand_bn",
                  "inbound_nodes": [
                    [
                      [
                        "block3a_expand_conv",
                        0,
                        0,
                        {}
                      ]
                    ]
                  ]
                },
                {
                  "class_name": "Activation",
                  "config": {
                    "name": "block3a_expand_activation",
                    "trainable": true,
                    "dtype": "float32",
                    "activation": "swish"
                  },
                  "name": "block3a_expand_activation",
                  "inbound_nodes": [
                    [
                      [
                        "block3a_expand_bn",
                        0,
                        0,
                        {}
                      ]
                    ]
                  ]
                },
                {
                  "class_name": "ZeroPadding2D",
                  "config": {
                    "name": "block3a_dwconv_pad",
                    "trainable": true,
                    "dtype": "float32",
                    "padding": [
                      [
                        1,
                        2
                      ],
                      [
                        1,
                        2
                      ]
                    ],
                    "data_format": "channels_last"
                  },
                  "name": "block3a_dwconv_pad",
                  "inbound_nodes": [
                    [
                      [
                        "block3a_expand_activation",
                        0,
                        0,
                        {}
                      ]
                    ]
                  ]
                },
                {
                  "class_name": "DepthwiseConv2D",
                  "config": {
                    "name": "block3a_dwconv",
                    "trainable": true,
                    "dtype": "float32",
                    "kernel_size": [
                      5,
                      5
                    ],
                    "strides": [
                      2,
                      2
                    ],
                    "padding": "valid",
                    "data_format": "channels_last",
                    "dilation_rate": [
                      1,
                      1
                    ],
                    "groups": 1,
                    "activation": "linear",
                    "use_bias": false,
                    "bias_initializer": {
                      "class_name": "Zeros",
                      "config": {}
                    },
                    "bias_regularizer": null,
                    "activity_regularizer": null,
                    "bias_constraint": null,
                    "depth_multiplier": 1,
                    "depthwise_initializer": {
                      "class_name": "VarianceScaling",
                      "config": {
                        "scale": 2.0,
                        "mode": "fan_out",
                        "distribution": "truncated_normal",
                        "seed": null
                      }
                    },
                    "depthwise_regularizer": null,
                    "depthwise_constraint": null
                  },
                  "name": "block3a_dwconv",
                  "inbound_nodes": [
                    [
                      [
                        "block3a_dwconv_pad",
                        0,
                        0,
                        {}
                      ]
                    ]
                  ]
                },
                {
                  "class_name": "BatchNormalization",
                  "config": {
                    "name": "block3a_bn",
                    "trainable": true,
                    "dtype": "float32",
                    "axis": [
                      3
                    ],
                    "momentum": 0.99,
                    "epsilon": 0.001,
                    "center": true,
                    "scale": true,
                    "beta_initializer": {
                      "class_name": "Zeros",
                      "config": {}
                    },
                    "gamma_initializer": {
                      "class_name": "Ones",
                      "config": {}
                    },
                    "moving_mean_initializer": {
                      "class_name": "Zeros",
                      "config": {}
                    },
                    "moving_variance_initializer": {
                      "class_name": "Ones",
                      "config": {}
                    },
                    "beta_regularizer": null,
                    "gamma_regularizer": null,
                    "beta_constraint": null,
                    "gamma_constraint": null
                  },
                  "name": "block3a_bn",
                  "inbound_nodes": [
                    [
                      [
                        "block3a_dwconv",
                        0,
                        0,
                        {}
                      ]
                    ]
                  ]
                },
                {
                  "class_name": "Activation",
                  "config": {
                    "name": "block3a_activation",
                    "trainable": true,
                    "dtype": "float32",
                    "activation": "swish"
                  },
                  "name": "block3a_activation",
                  "inbound_nodes": [
                    [
                      [
                        "block3a_bn",
                        0,
                        0,
                        {}
                      ]
                    ]
                  ]
                },
                {
                  "class_name": "GlobalAveragePooling2D",
                  "config": {
                    "name": "block3a_se_squeeze",
                    "trainable": true,
                    "dtype": "float32",
                    "data_format": "channels_last"
                  },
                  "name": "block3a_se_squeeze",
                  "inbound_nodes": [
                    [
                      [
                        "block3a_activation",
                        0,
                        0,
                        {}
                      ]
                    ]
                  ]
                },
                {
                  "class_name": "Reshape",
                  "config": {
                    "name": "block3a_se_reshape",
                    "trainable": true,
                    "dtype": "float32",
                    "target_shape": [
                      1,
                      1,
                      144
                    ]
                  },
                  "name": "block3a_se_reshape",
                  "inbound_nodes": [
                    [
                      [
                        "block3a_se_squeeze",
                        0,
                        0,
                        {}
                      ]
                    ]
                  ]
                },
                {
                  "class_name": "Conv2D",
                  "config": {
                    "name": "block3a_se_reduce",
                    "trainable": true,
                    "dtype": "float32",
                    "filters": 6,
                    "kernel_size": [
                      1,
                      1
                    ],
                    "strides": [
                      1,
                      1
                    ],
                    "padding": "same",
                    "data_format": "channels_last",
                    "dilation_rate": [
                      1,
                      1
                    ],
                    "groups": 1,
                    "activation": "swish",
                    "use_bias": true,
                    "kernel_initializer": {
                      "class_name": "VarianceScaling",
                      "config": {
                        "scale": 2.0,
                        "mode": "fan_out",
                        "distribution": "truncated_normal",
                        "seed": null
                      }
                    },
                    "bias_initializer": {
                      "class_name": "Zeros",
                      "config": {}
                    },
                    "kernel_regularizer": null,
                    "bias_regularizer": null,
                    "activity_regularizer": null,
                    "kernel_constraint": null,
                    "bias_constraint": null
                  },
                  "name": "block3a_se_reduce",
                  "inbound_nodes": [
                    [
                      [
                        "block3a_se_reshape",
                        0,
                        0,
                        {}
                      ]
                    ]
                  ]
                },
                {
                  "class_name": "Conv2D",
                  "config": {
                    "name": "block3a_se_expand",
                    "trainable": true,
                    "dtype": "float32",
                    "filters": 144,
                    "kernel_size": [
                      1,
                      1
                    ],
                    "strides": [
                      1,
                      1
                    ],
                    "padding": "same",
                    "data_format": "channels_last",
                    "dilation_rate": [
                      1,
                      1
                    ],
                    "groups": 1,
                    "activation": "sigmoid",
                    "use_bias": true,
                    "kernel_initializer": {
                      "class_name": "VarianceScaling",
                      "config": {
                        "scale": 2.0,
                        "mode": "fan_out",
                        "distribution": "truncated_normal",
                        "seed": null
                      }
                    },
                    "bias_initializer": {
                      "class_name": "Zeros",
                      "config": {}
                    },
                    "kernel_regularizer": null,
                    "bias_regularizer": null,
                    "activity_regularizer": null,
                    "kernel_constraint": null,
                    "bias_constraint": null
                  },
                  "name": "block3a_se_expand",
                  "inbound_nodes": [
                    [
                      [
                        "block3a_se_reduce",
                        0,
                        0,
                        {}
                      ]
                    ]
                  ]
                },
                {
                  "class_name": "Multiply",
                  "config": {
                    "name": "block3a_se_excite",
                    "trainable": true,
                    "dtype": "float32"
                  },
                  "name": "block3a_se_excite",
                  "inbound_nodes": [
                    [
                      [
                        "block3a_activation",
                        0,
                        0,
                        {}
                      ],
                      [
                        "block3a_se_expand",
                        0,
                        0,
                        {}
                      ]
                    ]
                  ]
                },
                {
                  "class_name": "Conv2D",
                  "config": {
                    "name": "block3a_project_conv",
                    "trainable": true,
                    "dtype": "float32",
                    "filters": 40,
                    "kernel_size": [
                      1,
                      1
                    ],
                    "strides": [
                      1,
                      1
                    ],
                    "padding": "same",
                    "data_format": "channels_last",
                    "dilation_rate": [
                      1,
                      1
                    ],
                    "groups": 1,
                    "activation": "linear",
                    "use_bias": false,
                    "kernel_initializer": {
                      "class_name": "VarianceScaling",
                      "config": {
                        "scale": 2.0,
                        "mode": "fan_out",
                        "distribution": "truncated_normal",
                        "seed": null
                      }
                    },
                    "bias_initializer": {
                      "class_name": "Zeros",
                      "config": {}
                    },
                    "kernel_regularizer": null,
                    "bias_regularizer": null,
                    "activity_regularizer": null,
                    "kernel_constraint": null,
                    "bias_constraint": null
                  },
                  "name": "block3a_project_conv",
                  "inbound_nodes": [
                    [
                      [
                        "block3a_se_excite",
                        0,
                        0,
                        {}
                      ]
                    ]
                  ]
                },
                {
                  "class_name": "BatchNormalization",
                  "config": {
                    "name": "block3a_project_bn",
                    "trainable": true,
                    "dtype": "float32",
                    "axis": [
                      3
                    ],
                    "momentum": 0.99,
                    "epsilon": 0.001,
                    "center": true,
                    "scale": true,
                    "beta_initializer": {
                      "class_name": "Zeros",
                      "config": {}
                    },
                    "gamma_initializer": {
                      "class_name": "Ones",
                      "config": {}
                    },
                    "moving_mean_initializer": {
                      "class_name": "Zeros",
                      "config": {}
                    },
                    "moving_variance_initializer": {
                      "class_name": "Ones",
                      "config": {}
                    },
                    "beta_regularizer": null,
                    "gamma_regularizer": null,
                    "beta_constraint": null,
                    "gamma_constraint": null
                  },
                  "name": "block3a_project_bn",
                  "inbound_nodes": [
                    [
                      [
                        "block3a_project_conv",
                        0,
                        0,
                        {}
                      ]
                    ]
                  ]
                },
                {
                  "class_name": "Conv2D",
                  "config": {
                    "name": "block3b_expand_conv",
                    "trainable": true,
                    "dtype": "float32",
                    "filters": 240,
                    "kernel_size": [
                      1,
                      1
                    ],
                    "strides": [
                      1,
                      1
                    ],
                    "padding": "same",
                    "data_format": "channels_last",
                    "dilation_rate": [
                      1,
                      1
                    ],
                    "groups": 1,
                    "activation": "linear",
                    "use_bias": false,
                    "kernel_initializer": {
                      "class_name": "VarianceScaling",
                      "config": {
                        "scale": 2.0,
                        "mode": "fan_out",
                        "distribution": "truncated_normal",
                        "seed": null
                      }
                    },
                    "bias_initializer": {
                      "class_name": "Zeros",
                      "config": {}
                    },
                    "kernel_regularizer": null,
                    "bias_regularizer": null,
                    "activity_regularizer": null,
                    "kernel_constraint": null,
                    "bias_constraint": null
                  },
                  "name": "block3b_expand_conv",
                  "inbound_nodes": [
                    [
                      [
                        "block3a_project_bn",
                        0,
                        0,
                        {}
                      ]
                    ]
                  ]
                },
                {
                  "class_name": "BatchNormalization",
                  "config": {
                    "name": "block3b_expand_bn",
                    "trainable": true,
                    "dtype": "float32",
                    "axis": [
                      3
                    ],
                    "momentum": 0.99,
                    "epsilon": 0.001,
                    "center": true,
                    "scale": true,
                    "beta_initializer": {
                      "class_name": "Zeros",
                      "config": {}
                    },
                    "gamma_initializer": {
                      "class_name": "Ones",
                      "config": {}
                    },
                    "moving_mean_initializer": {
                      "class_name": "Zeros",
                      "config": {}
                    },
                    "moving_variance_initializer": {
                      "class_name": "Ones",
                      "config": {}
                    },
                    "beta_regularizer": null,
                    "gamma_regularizer": null,
                    "beta_constraint": null,
                    "gamma_constraint": null
                  },
                  "name": "block3b_expand_bn",
                  "inbound_nodes": [
                    [
                      [
                        "block3b_expand_conv",
                        0,
                        0,
                        {}
                      ]
                    ]
                  ]
                },
                {
                  "class_name": "Activation",
                  "config": {
                    "name": "block3b_expand_activation",
                    "trainable": true,
                    "dtype": "float32",
                    "activation": "swish"
                  },
                  "name": "block3b_expand_activation",
                  "inbound_nodes": [
                    [
                      [
                        "block3b_expand_bn",
                        0,
                        0,
                        {}
                      ]
                    ]
                  ]
                },
                {
                  "class_name": "DepthwiseConv2D",
                  "config": {
                    "name": "block3b_dwconv",
                    "trainable": true,
                    "dtype": "float32",
                    "kernel_size": [
                      5,
                      5
                    ],
                    "strides": [
                      1,
                      1
                    ],
                    "padding": "same",
                    "data_format": "channels_last",
                    "dilation_rate": [
                      1,
                      1
                    ],
                    "groups": 1,
                    "activation": "linear",
                    "use_bias": false,
                    "bias_initializer": {
                      "class_name": "Zeros",
                      "config": {}
                    },
                    "bias_regularizer": null,
                    "activity_regularizer": null,
                    "bias_constraint": null,
                    "depth_multiplier": 1,
                    "depthwise_initializer": {
                      "class_name": "VarianceScaling",
                      "config": {
                        "scale": 2.0,
                        "mode": "fan_out",
                        "distribution": "truncated_normal",
                        "seed": null
                      }
                    },
                    "depthwise_regularizer": null,
                    "depthwise_constraint": null
                  },
                  "name": "block3b_dwconv",
                  "inbound_nodes": [
                    [
                      [
                        "block3b_expand_activation",
                        0,
                        0,
                        {}
                      ]
                    ]
                  ]
                },
                {
                  "class_name": "BatchNormalization",
                  "config": {
                    "name": "block3b_bn",
                    "trainable": true,
                    "dtype": "float32",
                    "axis": [
                      3
                    ],
                    "momentum": 0.99,
                    "epsilon": 0.001,
                    "center": true,
                    "scale": true,
                    "beta_initializer": {
                      "class_name": "Zeros",
                      "config": {}
                    },
                    "gamma_initializer": {
                      "class_name": "Ones",
                      "config": {}
                    },
                    "moving_mean_initializer": {
                      "class_name": "Zeros",
                      "config": {}
                    },
                    "moving_variance_initializer": {
                      "class_name": "Ones",
                      "config": {}
                    },
                    "beta_regularizer": null,
                    "gamma_regularizer": null,
                    "beta_constraint": null,
                    "gamma_constraint": null
                  },
                  "name": "block3b_bn",
                  "inbound_nodes": [
                    [
                      [
                        "block3b_dwconv",
                        0,
                        0,
                        {}
                      ]
                    ]
                  ]
                },
                {
                  "class_name": "Activation",
                  "config": {
                    "name": "block3b_activation",
                    "trainable": true,
                    "dtype": "float32",
                    "activation": "swish"
                  },
                  "name": "block3b_activation",
                  "inbound_nodes": [
                    [
                      [
                        "block3b_bn",
                        0,
                        0,
                        {}
                      ]
                    ]
                  ]
                },
                {
                  "class_name": "GlobalAveragePooling2D",
                  "config": {
                    "name": "block3b_se_squeeze",
                    "trainable": true,
                    "dtype": "float32",
                    "data_format": "channels_last"
                  },
                  "name": "block3b_se_squeeze",
                  "inbound_nodes": [
                    [
                      [
                        "block3b_activation",
                        0,
                        0,
                        {}
                      ]
                    ]
                  ]
                },
                {
                  "class_name": "Reshape",
                  "config": {
                    "name": "block3b_se_reshape",
                    "trainable": true,
                    "dtype": "float32",
                    "target_shape": [
                      1,
                      1,
                      240
                    ]
                  },
                  "name": "block3b_se_reshape",
                  "inbound_nodes": [
                    [
                      [
                        "block3b_se_squeeze",
                        0,
                        0,
                        {}
                      ]
                    ]
                  ]
                },
                {
                  "class_name": "Conv2D",
                  "config": {
                    "name": "block3b_se_reduce",
                    "trainable": true,
                    "dtype": "float32",
                    "filters": 10,
                    "kernel_size": [
                      1,
                      1
                    ],
                    "strides": [
                      1,
                      1
                    ],
                    "padding": "same",
                    "data_format": "channels_last",
                    "dilation_rate": [
                      1,
                      1
                    ],
                    "groups": 1,
                    "activation": "swish",
                    "use_bias": true,
                    "kernel_initializer": {
                      "class_name": "VarianceScaling",
                      "config": {
                        "scale": 2.0,
                        "mode": "fan_out",
                        "distribution": "truncated_normal",
                        "seed": null
                      }
                    },
                    "bias_initializer": {
                      "class_name": "Zeros",
                      "config": {}
                    },
                    "kernel_regularizer": null,
                    "bias_regularizer": null,
                    "activity_regularizer": null,
                    "kernel_constraint": null,
                    "bias_constraint": null
                  },
                  "name": "block3b_se_reduce",
                  "inbound_nodes": [
                    [
                      [
                        "block3b_se_reshape",
                        0,
                        0,
                        {}
                      ]
                    ]
                  ]
                },
                {
                  "class_name": "Conv2D",
                  "config": {
                    "name": "block3b_se_expand",
                    "trainable": true,
                    "dtype": "float32",
                    "filters": 240,
                    "kernel_size": [
                      1,
                      1
                    ],
                    "strides": [
                      1,
                      1
                    ],
                    "padding": "same",
                    "data_format": "channels_last",
                    "dilation_rate": [
                      1,
                      1
                    ],
                    "groups": 1,
                    "activation": "sigmoid",
                    "use_bias": true,
                    "kernel_initializer": {
                      "class_name": "VarianceScaling",
                      "config": {
                        "scale": 2.0,
                        "mode": "fan_out",
                        "distribution": "truncated_normal",
                        "seed": null
                      }
                    },
                    "bias_initializer": {
                      "class_name": "Zeros",
                      "config": {}
                    },
                    "kernel_regularizer": null,
                    "bias_regularizer": null,
                    "activity_regularizer": null,
                    "kernel_constraint": null,
                    "bias_constraint": null
                  },
                  "name": "block3b_se_expand",
                  "inbound_nodes": [
                    [
                      [
                        "block3b_se_reduce",
                        0,
                        0,
                        {}
                      ]
                    ]
                  ]
                },
                {
                  "class_name": "Multiply",
                  "config": {
                    "name": "block3b_se_excite",
                    "trainable": true,
                    "dtype": "float32"
                  },
                  "name": "block3b_se_excite",
                  "inbound_nodes": [
                    [
                      [
                        "block3b_activation",
                        0,
                        0,
                        {}
                      ],
                      [
                        "block3b_se_expand",
                        0,
                        0,
                        {}
                      ]
                    ]
                  ]
                },
                {
                  "class_name": "Conv2D",
                  "config": {
                    "name": "block3b_project_conv",
                    "trainable": true,
                    "dtype": "float32",
                    "filters": 40,
                    "kernel_size": [
                      1,
                      1
                    ],
                    "strides": [
                      1,
                      1
                    ],
                    "padding": "same",
                    "data_format": "channels_last",
                    "dilation_rate": [
                      1,
                      1
                    ],
                    "groups": 1,
                    "activation": "linear",
                    "use_bias": false,
                    "kernel_initializer": {
                      "class_name": "VarianceScaling",
                      "config": {
                        "scale": 2.0,
                        "mode": "fan_out",
                        "distribution": "truncated_normal",
                        "seed": null
                      }
                    },
                    "bias_initializer": {
                      "class_name": "Zeros",
                      "config": {}
                    },
                    "kernel_regularizer": null,
                    "bias_regularizer": null,
                    "activity_regularizer": null,
                    "kernel_constraint": null,
                    "bias_constraint": null
                  },
                  "name": "block3b_project_conv",
                  "inbound_nodes": [
                    [
                      [
                        "block3b_se_excite",
                        0,
                        0,
                        {}
                      ]
                    ]
                  ]
                },
                {
                  "class_name": "BatchNormalization",
                  "config": {
                    "name": "block3b_project_bn",
                    "trainable": true,
                    "dtype": "float32",
                    "axis": [
                      3
                    ],
                    "momentum": 0.99,
                    "epsilon": 0.001,
                    "center": true,
                    "scale": true,
                    "beta_initializer": {
                      "class_name": "Zeros",
                      "config": {}
                    },
                    "gamma_initializer": {
                      "class_name": "Ones",
                      "config": {}
                    },
                    "moving_mean_initializer": {
                      "class_name": "Zeros",
                      "config": {}
                    },
                    "moving_variance_initializer": {
                      "class_name": "Ones",
                      "config": {}
                    },
                    "beta_regularizer": null,
                    "gamma_regularizer": null,
                    "beta_constraint": null,
                    "gamma_constraint": null
                  },
                  "name": "block3b_project_bn",
                  "inbound_nodes": [
                    [
                      [
                        "block3b_project_conv",
                        0,
                        0,
                        {}
                      ]
                    ]
                  ]
                },
                {
                  "class_name": "Dropout",
                  "config": {
                    "name": "block3b_drop",
                    "trainable": true,
                    "dtype": "float32",
                    "rate": 0.05,
                    "noise_shape": [
                      null,
                      1,
                      1,
                      1
                    ],
                    "seed": null
                  },
                  "name": "block3b_drop",
                  "inbound_nodes": [
                    [
                      [
                        "block3b_project_bn",
                        0,
                        0,
                        {}
                      ]
                    ]
                  ]
                },
                {
                  "class_name": "Add",
                  "config": {
                    "name": "block3b_add",
                    "trainable": true,
                    "dtype": "float32"
                  },
                  "name": "block3b_add",
                  "inbound_nodes": [
                    [
                      [
                        "block3b_drop",
                        0,
                        0,
                        {}
                      ],
                      [
                        "block3a_project_bn",
                        0,
                        0,
                        {}
                      ]
                    ]
                  ]
                },
                {
                  "class_name": "Conv2D",
                  "config": {
                    "name": "block4a_expand_conv",
                    "trainable": true,
                    "dtype": "float32",
                    "filters": 240,
                    "kernel_size": [
                      1,
                      1
                    ],
                    "strides": [
                      1,
                      1
                    ],
                    "padding": "same",
                    "data_format": "channels_last",
                    "dilation_rate": [
                      1,
                      1
                    ],
                    "groups": 1,
                    "activation": "linear",
                    "use_bias": false,
                    "kernel_initializer": {
                      "class_name": "VarianceScaling",
                      "config": {
                        "scale": 2.0,
                        "mode": "fan_out",
                        "distribution": "truncated_normal",
                        "seed": null
                      }
                    },
                    "bias_initializer": {
                      "class_name": "Zeros",
                      "config": {}
                    },
                    "kernel_regularizer": null,
                    "bias_regularizer": null,
                    "activity_regularizer": null,
                    "kernel_constraint": null,
                    "bias_constraint": null
                  },
                  "name": "block4a_expand_conv",
                  "inbound_nodes": [
                    [
                      [
                        "block3b_add",
                        0,
                        0,
                        {}
                      ]
                    ]
                  ]
                },
                {
                  "class_name": "BatchNormalization",
                  "config": {
                    "name": "block4a_expand_bn",
                    "trainable": true,
                    "dtype": "float32",
                    "axis": [
                      3
                    ],
                    "momentum": 0.99,
                    "epsilon": 0.001,
                    "center": true,
                    "scale": true,
                    "beta_initializer": {
                      "class_name": "Zeros",
                      "config": {}
                    },
                    "gamma_initializer": {
                      "class_name": "Ones",
                      "config": {}
                    },
                    "moving_mean_initializer": {
                      "class_name": "Zeros",
                      "config": {}
                    },
                    "moving_variance_initializer": {
                      "class_name": "Ones",
                      "config": {}
                    },
                    "beta_regularizer": null,
                    "gamma_regularizer": null,
                    "beta_constraint": null,
                    "gamma_constraint": null
                  },
                  "name": "block4a_expand_bn",
                  "inbound_nodes": [
                    [
                      [
                        "block4a_expand_conv",
                        0,
                        0,
                        {}
                      ]
                    ]
                  ]
                },
                {
                  "class_name": "Activation",
                  "config": {
                    "name": "block4a_expand_activation",
                    "trainable": true,
                    "dtype": "float32",
                    "activation": "swish"
                  },
                  "name": "block4a_expand_activation",
                  "inbound_nodes": [
                    [
                      [
                        "block4a_expand_bn",
                        0,
                        0,
                        {}
                      ]
                    ]
                  ]
                },
                {
                  "class_name": "ZeroPadding2D",
                  "config": {
                    "name": "block4a_dwconv_pad",
                    "trainable": true,
                    "dtype": "float32",
                    "padding": [
                      [
                        0,
                        1
                      ],
                      [
                        0,
                        1
                      ]
                    ],
                    "data_format": "channels_last"
                  },
                  "name": "block4a_dwconv_pad",
                  "inbound_nodes": [
                    [
                      [
                        "block4a_expand_activation",
                        0,
                        0,
                        {}
                      ]
                    ]
                  ]
                },
                {
                  "class_name": "DepthwiseConv2D",
                  "config": {
                    "name": "block4a_dwconv",
                    "trainable": true,
                    "dtype": "float32",
                    "kernel_size": [
                      3,
                      3
                    ],
                    "strides": [
                      2,
                      2
                    ],
                    "padding": "valid",
                    "data_format": "channels_last",
                    "dilation_rate": [
                      1,
                      1
                    ],
                    "groups": 1,
                    "activation": "linear",
                    "use_bias": false,
                    "bias_initializer": {
                      "class_name": "Zeros",
                      "config": {}
                    },
                    "bias_regularizer": null,
                    "activity_regularizer": null,
                    "bias_constraint": null,
                    "depth_multiplier": 1,
                    "depthwise_initializer": {
                      "class_name": "VarianceScaling",
                      "config": {
                        "scale": 2.0,
                        "mode": "fan_out",
                        "distribution": "truncated_normal",
                        "seed": null
                      }
                    },
                    "depthwise_regularizer": null,
                    "depthwise_constraint": null
                  },
                  "name": "block4a_dwconv",
                  "inbound_nodes": [
                    [
                      [
                        "block4a_dwconv_pad",
                        0,
                        0,
                        {}
                      ]
                    ]
                  ]
                },
                {
                  "class_name": "BatchNormalization",
                  "config": {
                    "name": "block4a_bn",
                    "trainable": true,
                    "dtype": "float32",
                    "axis": [
                      3
                    ],
                    "momentum": 0.99,
                    "epsilon": 0.001,
                    "center": true,
                    "scale": true,
                    "beta_initializer": {
                      "class_name": "Zeros",
                      "config": {}
                    },
                    "gamma_initializer": {
                      "class_name": "Ones",
                      "config": {}
                    },
                    "moving_mean_initializer": {
                      "class_name": "Zeros",
                      "config": {}
                    },
                    "moving_variance_initializer": {
                      "class_name": "Ones",
                      "config": {}
                    },
                    "beta_regularizer": null,
                    "gamma_regularizer": null,
                    "beta_constraint": null,
                    "gamma_constraint": null
                  },
                  "name": "block4a_bn",
                  "inbound_nodes": [
                    [
                      [
                        "block4a_dwconv",
                        0,
                        0,
                        {}
                      ]
                    ]
                  ]
                },
                {
                  "class_name": "Activation",
                  "config": {
                    "name": "block4a_activation",
                    "trainable": true,
                    "dtype": "float32",
                    "activation": "swish"
                  },
                  "name": "block4a_activation",
                  "inbound_nodes": [
                    [
                      [
                        "block4a_bn",
                        0,
                        0,
                        {}
                      ]
                    ]
                  ]
                },
                {
                  "class_name": "GlobalAveragePooling2D",
                  "config": {
                    "name": "block4a_se_squeeze",
                    "trainable": true,
                    "dtype": "float32",
                    "data_format": "channels_last"
                  },
                  "name": "block4a_se_squeeze",
                  "inbound_nodes": [
                    [
                      [
                        "block4a_activation",
                        0,
                        0,
                        {}
                      ]
                    ]
                  ]
                },
                {
                  "class_name": "Reshape",
                  "config": {
                    "name": "block4a_se_reshape",
                    "trainable": true,
                    "dtype": "float32",
                    "target_shape": [
                      1,
                      1,
                      240
                    ]
                  },
                  "name": "block4a_se_reshape",
                  "inbound_nodes": [
                    [
                      [
                        "block4a_se_squeeze",
                        0,
                        0,
                        {}
                      ]
                    ]
                  ]
                },
                {
                  "class_name": "Conv2D",
                  "config": {
                    "name": "block4a_se_reduce",
                    "trainable": true,
                    "dtype": "float32",
                    "filters": 10,
                    "kernel_size": [
                      1,
                      1
                    ],
                    "strides": [
                      1,
                      1
                    ],
                    "padding": "same",
                    "data_format": "channels_last",
                    "dilation_rate": [
                      1,
                      1
                    ],
                    "groups": 1,
                    "activation": "swish",
                    "use_bias": true,
                    "kernel_initializer": {
                      "class_name": "VarianceScaling",
                      "config": {
                        "scale": 2.0,
                        "mode": "fan_out",
                        "distribution": "truncated_normal",
                        "seed": null
                      }
                    },
                    "bias_initializer": {
                      "class_name": "Zeros",
                      "config": {}
                    },
                    "kernel_regularizer": null,
                    "bias_regularizer": null,
                    "activity_regularizer": null,
                    "kernel_constraint": null,
                    "bias_constraint": null
                  },
                  "name": "block4a_se_reduce",
                  "inbound_nodes": [
                    [
                      [
                        "block4a_se_reshape",
                        0,
                        0,
                        {}
                      ]
                    ]
                  ]
                },
                {
                  "class_name": "Conv2D",
                  "config": {
                    "name": "block4a_se_expand",
                    "trainable": true,
                    "dtype": "float32",
                    "filters": 240,
                    "kernel_size": [
                      1,
                      1
                    ],
                    "strides": [
                      1,
                      1
                    ],
                    "padding": "same",
                    "data_format": "channels_last",
                    "dilation_rate": [
                      1,
                      1
                    ],
                    "groups": 1,
                    "activation": "sigmoid",
                    "use_bias": true,
                    "kernel_initializer": {
                      "class_name": "VarianceScaling",
                      "config": {
                        "scale": 2.0,
                        "mode": "fan_out",
                        "distribution": "truncated_normal",
                        "seed": null
                      }
                    },
                    "bias_initializer": {
                      "class_name": "Zeros",
                      "config": {}
                    },
                    "kernel_regularizer": null,
                    "bias_regularizer": null,
                    "activity_regularizer": null,
                    "kernel_constraint": null,
                    "bias_constraint": null
                  },
                  "name": "block4a_se_expand",
                  "inbound_nodes": [
                    [
                      [
                        "block4a_se_reduce",
                        0,
                        0,
                        {}
                      ]
                    ]
                  ]
                },
                {
                  "class_name": "Multiply",
                  "config": {
                    "name": "block4a_se_excite",
                    "trainable": true,
                    "dtype": "float32"
                  },
                  "name": "block4a_se_excite",
                  "inbound_nodes": [
                    [
                      [
                        "block4a_activation",
                        0,
                        0,
                        {}
                      ],
                      [
                        "block4a_se_expand",
                        0,
                        0,
                        {}
                      ]
                    ]
                  ]
                },
                {
                  "class_name": "Conv2D",
                  "config": {
                    "name": "block4a_project_conv",
                    "trainable": true,
                    "dtype": "float32",
                    "filters": 80,
                    "kernel_size": [
                      1,
                      1
                    ],
                    "strides": [
                      1,
                      1
                    ],
                    "padding": "same",
                    "data_format": "channels_last",
                    "dilation_rate": [
                      1,
                      1
                    ],
                    "groups": 1,
                    "activation": "linear",
                    "use_bias": false,
                    "kernel_initializer": {
                      "class_name": "VarianceScaling",
                      "config": {
                        "scale": 2.0,
                        "mode": "fan_out",
                        "distribution": "truncated_normal",
                        "seed": null
                      }
                    },
                    "bias_initializer": {
                      "class_name": "Zeros",
                      "config": {}
                    },
                    "kernel_regularizer": null,
                    "bias_regularizer": null,
                    "activity_regularizer": null,
                    "kernel_constraint": null,
                    "bias_constraint": null
                  },
                  "name": "block4a_project_conv",
                  "inbound_nodes": [
                    [
                      [
                        "block4a_se_excite",
                        0,
                        0,
                        {}
                      ]
                    ]
                  ]
                },
                {
                  "class_name": "BatchNormalization",
                  "config": {
                    "name": "block4a_project_bn",
                    "trainable": true,
                    "dtype": "float32",
                    "axis": [
                      3
                    ],
                    "momentum": 0.99,
                    "epsilon": 0.001,
                    "center": true,
                    "scale": true,
                    "beta_initializer": {
                      "class_name": "Zeros",
                      "config": {}
                    },
                    "gamma_initializer": {
                      "class_name": "Ones",
                      "config": {}
                    },
                    "moving_mean_initializer": {
                      "class_name": "Zeros",
                      "config": {}
                    },
                    "moving_variance_initializer": {
                      "class_name": "Ones",
                      "config": {}
                    },
                    "beta_regularizer": null,
                    "gamma_regularizer": null,
                    "beta_constraint": null,
                    "gamma_constraint": null
                  },
                  "name": "block4a_project_bn",
                  "inbound_nodes": [
                    [
                      [
                        "block4a_project_conv",
                        0,
                        0,
                        {}
                      ]
                    ]
                  ]
                },
                {
                  "class_name": "Conv2D",
                  "config": {
                    "name": "block4b_expand_conv",
                    "trainable": true,
                    "dtype": "float32",
                    "filters": 480,
                    "kernel_size": [
                      1,
                      1
                    ],
                    "strides": [
                      1,
                      1
                    ],
                    "padding": "same",
                    "data_format": "channels_last",
                    "dilation_rate": [
                      1,
                      1
                    ],
                    "groups": 1,
                    "activation": "linear",
                    "use_bias": false,
                    "kernel_initializer": {
                      "class_name": "VarianceScaling",
                      "config": {
                        "scale": 2.0,
                        "mode": "fan_out",
                        "distribution": "truncated_normal",
                        "seed": null
                      }
                    },
                    "bias_initializer": {
                      "class_name": "Zeros",
                      "config": {}
                    },
                    "kernel_regularizer": null,
                    "bias_regularizer": null,
                    "activity_regularizer": null,
                    "kernel_constraint": null,
                    "bias_constraint": null
                  },
                  "name": "block4b_expand_conv",
                  "inbound_nodes": [
                    [
                      [
                        "block4a_project_bn",
                        0,
                        0,
                        {}
                      ]
                    ]
                  ]
                },
                {
                  "class_name": "BatchNormalization",
                  "config": {
                    "name": "block4b_expand_bn",
                    "trainable": true,
                    "dtype": "float32",
                    "axis": [
                      3
                    ],
                    "momentum": 0.99,
                    "epsilon": 0.001,
                    "center": true,
                    "scale": true,
                    "beta_initializer": {
                      "class_name": "Zeros",
                      "config": {}
                    },
                    "gamma_initializer": {
                      "class_name": "Ones",
                      "config": {}
                    },
                    "moving_mean_initializer": {
                      "class_name": "Zeros",
                      "config": {}
                    },
                    "moving_variance_initializer": {
                      "class_name": "Ones",
                      "config": {}
                    },
                    "beta_regularizer": null,
                    "gamma_regularizer": null,
                    "beta_constraint": null,
                    "gamma_constraint": null
                  },
                  "name": "block4b_expand_bn",
                  "inbound_nodes": [
                    [
                      [
                        "block4b_expand_conv",
                        0,
                        0,
                        {}
                      ]
                    ]
                  ]
                },
                {
                  "class_name": "Activation",
                  "config": {
                    "name": "block4b_expand_activation",
                    "trainable": true,
                    "dtype": "float32",
                    "activation": "swish"
                  },
                  "name": "block4b_expand_activation",
                  "inbound_nodes": [
                    [
                      [
                        "block4b_expand_bn",
                        0,
                        0,
                        {}
                      ]
                    ]
                  ]
                },
                {
                  "class_name": "DepthwiseConv2D",
                  "config": {
                    "name": "block4b_dwconv",
                    "trainable": true,
                    "dtype": "float32",
                    "kernel_size": [
                      3,
                      3
                    ],
                    "strides": [
                      1,
                      1
                    ],
                    "padding": "same",
                    "data_format": "channels_last",
                    "dilation_rate": [
                      1,
                      1
                    ],
                    "groups": 1,
                    "activation": "linear",
                    "use_bias": false,
                    "bias_initializer": {
                      "class_name": "Zeros",
                      "config": {}
                    },
                    "bias_regularizer": null,
                    "activity_regularizer": null,
                    "bias_constraint": null,
                    "depth_multiplier": 1,
                    "depthwise_initializer": {
                      "class_name": "VarianceScaling",
                      "config": {
                        "scale": 2.0,
                        "mode": "fan_out",
                        "distribution": "truncated_normal",
                        "seed": null
                      }
                    },
                    "depthwise_regularizer": null,
                    "depthwise_constraint": null
                  },
                  "name": "block4b_dwconv",
                  "inbound_nodes": [
                    [
                      [
                        "block4b_expand_activation",
                        0,
                        0,
                        {}
                      ]
                    ]
                  ]
                },
                {
                  "class_name": "BatchNormalization",
                  "config": {
                    "name": "block4b_bn",
                    "trainable": true,
                    "dtype": "float32",
                    "axis": [
                      3
                    ],
                    "momentum": 0.99,
                    "epsilon": 0.001,
                    "center": true,
                    "scale": true,
                    "beta_initializer": {
                      "class_name": "Zeros",
                      "config": {}
                    },
                    "gamma_initializer": {
                      "class_name": "Ones",
                      "config": {}
                    },
                    "moving_mean_initializer": {
                      "class_name": "Zeros",
                      "config": {}
                    },
                    "moving_variance_initializer": {
                      "class_name": "Ones",
                      "config": {}
                    },
                    "beta_regularizer": null,
                    "gamma_regularizer": null,
                    "beta_constraint": null,
                    "gamma_constraint": null
                  },
                  "name": "block4b_bn",
                  "inbound_nodes": [
                    [
                      [
                        "block4b_dwconv",
                        0,
                        0,
                        {}
                      ]
                    ]
                  ]
                },
                {
                  "class_name": "Activation",
                  "config": {
                    "name": "block4b_activation",
                    "trainable": true,
                    "dtype": "float32",
                    "activation": "swish"
                  },
                  "name": "block4b_activation",
                  "inbound_nodes": [
                    [
                      [
                        "block4b_bn",
                        0,
                        0,
                        {}
                      ]
                    ]
                  ]
                },
                {
                  "class_name": "GlobalAveragePooling2D",
                  "config": {
                    "name": "block4b_se_squeeze",
                    "trainable": true,
                    "dtype": "float32",
                    "data_format": "channels_last"
                  },
                  "name": "block4b_se_squeeze",
                  "inbound_nodes": [
                    [
                      [
                        "block4b_activation",
                        0,
                        0,
                        {}
                      ]
                    ]
                  ]
                },
                {
                  "class_name": "Reshape",
                  "config": {
                    "name": "block4b_se_reshape",
                    "trainable": true,
                    "dtype": "float32",
                    "target_shape": [
                      1,
                      1,
                      480
                    ]
                  },
                  "name": "block4b_se_reshape",
                  "inbound_nodes": [
                    [
                      [
                        "block4b_se_squeeze",
                        0,
                        0,
                        {}
                      ]
                    ]
                  ]
                },
                {
                  "class_name": "Conv2D",
                  "config": {
                    "name": "block4b_se_reduce",
                    "trainable": true,
                    "dtype": "float32",
                    "filters": 20,
                    "kernel_size": [
                      1,
                      1
                    ],
                    "strides": [
                      1,
                      1
                    ],
                    "padding": "same",
                    "data_format": "channels_last",
                    "dilation_rate": [
                      1,
                      1
                    ],
                    "groups": 1,
                    "activation": "swish",
                    "use_bias": true,
                    "kernel_initializer": {
                      "class_name": "VarianceScaling",
                      "config": {
                        "scale": 2.0,
                        "mode": "fan_out",
                        "distribution": "truncated_normal",
                        "seed": null
                      }
                    },
                    "bias_initializer": {
                      "class_name": "Zeros",
                      "config": {}
                    },
                    "kernel_regularizer": null,
                    "bias_regularizer": null,
                    "activity_regularizer": null,
                    "kernel_constraint": null,
                    "bias_constraint": null
                  },
                  "name": "block4b_se_reduce",
                  "inbound_nodes": [
                    [
                      [
                        "block4b_se_reshape",
                        0,
                        0,
                        {}
                      ]
                    ]
                  ]
                },
                {
                  "class_name": "Conv2D",
                  "config": {
                    "name": "block4b_se_expand",
                    "trainable": true,
                    "dtype": "float32",
                    "filters": 480,
                    "kernel_size": [
                      1,
                      1
                    ],
                    "strides": [
                      1,
                      1
                    ],
                    "padding": "same",
                    "data_format": "channels_last",
                    "dilation_rate": [
                      1,
                      1
                    ],
                    "groups": 1,
                    "activation": "sigmoid",
                    "use_bias": true,
                    "kernel_initializer": {
                      "class_name": "VarianceScaling",
                      "config": {
                        "scale": 2.0,
                        "mode": "fan_out",
                        "distribution": "truncated_normal",
                        "seed": null
                      }
                    },
                    "bias_initializer": {
                      "class_name": "Zeros",
                      "config": {}
                    },
                    "kernel_regularizer": null,
                    "bias_regularizer": null,
                    "activity_regularizer": null,
                    "kernel_constraint": null,
                    "bias_constraint": null
                  },
                  "name": "block4b_se_expand",
                  "inbound_nodes": [
                    [
                      [
                        "block4b_se_reduce",
                        0,
                        0,
                        {}
                      ]
                    ]
                  ]
                },
                {
                  "class_name": "Multiply",
                  "config": {
                    "name": "block4b_se_excite",
                    "trainable": true,
                    "dtype": "float32"
                  },
                  "name": "block4b_se_excite",
                  "inbound_nodes": [
                    [
                      [
                        "block4b_activation",
                        0,
                        0,
                        {}
                      ],
                      [
                        "block4b_se_expand",
                        0,
                        0,
                        {}
                      ]
                    ]
                  ]
                },
                {
                  "class_name": "Conv2D",
                  "config": {
                    "name": "block4b_project_conv",
                    "trainable": true,
                    "dtype": "float32",
                    "filters": 80,
                    "kernel_size": [
                      1,
                      1
                    ],
                    "strides": [
                      1,
                      1
                    ],
                    "padding": "same",
                    "data_format": "channels_last",
                    "dilation_rate": [
                      1,
                      1
                    ],
                    "groups": 1,
                    "activation": "linear",
                    "use_bias": false,
                    "kernel_initializer": {
                      "class_name": "VarianceScaling",
                      "config": {
                        "scale": 2.0,
                        "mode": "fan_out",
                        "distribution": "truncated_normal",
                        "seed": null
                      }
                    },
                    "bias_initializer": {
                      "class_name": "Zeros",
                      "config": {}
                    },
                    "kernel_regularizer": null,
                    "bias_regularizer": null,
                    "activity_regularizer": null,
                    "kernel_constraint": null,
                    "bias_constraint": null
                  },
                  "name": "block4b_project_conv",
                  "inbound_nodes": [
                    [
                      [
                        "block4b_se_excite",
                        0,
                        0,
                        {}
                      ]
                    ]
                  ]
                },
                {
                  "class_name": "BatchNormalization",
                  "config": {
                    "name": "block4b_project_bn",
                    "trainable": true,
                    "dtype": "float32",
                    "axis": [
                      3
                    ],
                    "momentum": 0.99,
                    "epsilon": 0.001,
                    "center": true,
                    "scale": true,
                    "beta_initializer": {
                      "class_name": "Zeros",
                      "config": {}
                    },
                    "gamma_initializer": {
                      "class_name": "Ones",
                      "config": {}
                    },
                    "moving_mean_initializer": {
                      "class_name": "Zeros",
                      "config": {}
                    },
                    "moving_variance_initializer": {
                      "class_name": "Ones",
                      "config": {}
                    },
                    "beta_regularizer": null,
                    "gamma_regularizer": null,
                    "beta_constraint": null,
                    "gamma_constraint": null
                  },
                  "name": "block4b_project_bn",
                  "inbound_nodes": [
                    [
                      [
                        "block4b_project_conv",
                        0,
                        0,
                        {}
                      ]
                    ]
                  ]
                },
                {
                  "class_name": "Dropout",
                  "config": {
                    "name": "block4b_drop",
                    "trainable": true,
                    "dtype": "float32",
                    "rate": 0.07500000000000001,
                    "noise_shape": [
                      null,
                      1,
                      1,
                      1
                    ],
                    "seed": null
                  },
                  "name": "block4b_drop",
                  "inbound_nodes": [
                    [
                      [
                        "block4b_project_bn",
                        0,
                        0,
                        {}
                      ]
                    ]
                  ]
                },
                {
                  "class_name": "Add",
                  "config": {
                    "name": "block4b_add",
                    "trainable": true,
                    "dtype": "float32"
                  },
                  "name": "block4b_add",
                  "inbound_nodes": [
                    [
                      [
                        "block4b_drop",
                        0,
                        0,
                        {}
                      ],
                      [
                        "block4a_project_bn",
                        0,
                        0,
                        {}
                      ]
                    ]
                  ]
                }
              ],
              "input_layers": [
                [
                  "input_18",
                  0,
                  0
                ]
              ],
              "output_layers": [
                [
                  "block4b_add",
                  0,
                  0
                ]
              ]
            },
            "name": "functional_31",
            "inbound_nodes": [
              [
                [
                  "input_19",
                  0,
                  0,
                  {}
                ]
              ]
            ]
          },
          {
            "class_name": "Conv2D",
            "config": {
              "name": "conv2d_4",
              "trainable": true,
              "dtype": "float32",
              "filters": 64,
              "kernel_size": [
                3,
                3
              ],
              "strides": [
                2,
                2
              ],
              "padding": "same",
              "data_format": "channels_last",
              "dilation_rate": [
                1,
                1
              ],
              "groups": 1,
              "activation": "relu",
              "use_bias": true,
              "kernel_initializer": {
                "class_name": "GlorotUniform",
                "config": {
                  "seed": null
                }
              },
              "bias_initializer": {
                "class_name": "Zeros",
                "config": {}
              },
              "kernel_regularizer": null,
              "bias_regularizer": null,
              "activity_regularizer": null,
              "kernel_constraint": null,
              "bias_constraint": null
            },
            "name": "conv2d_4",
            "inbound_nodes": [
              [
                [
                  "functional_31",
                  1,
                  0,
                  {}
                ]
              ]
            ]
          },
          {
            "class_name": "BatchNormalization",
            "config": {
              "name": "batch_normalization_4",
              "trainable": true,
              "dtype": "float32",
              "axis": [
                3
              ],
              "momentum": 0.99,
              "epsilon": 0.001,
              "center": true,
              "scale": true,
              "beta_initializer": {
                "class_name": "Zeros",
                "config": {}
              },
              "gamma_initializer": {
                "class_name": "Ones",
                "config": {}
              },
              "moving_mean_initializer": {
                "class_name": "Zeros",
                "config": {}
              },
              "moving_variance_initializer": {
                "class_name": "Ones",
                "config": {}
              },
              "beta_regularizer": null,
              "gamma_regularizer": null,
              "beta_constraint": null,
              "gamma_constraint": null
            },
            "name": "batch_normalization_4",
            "inbound_nodes": [
              [
                [
                  "conv2d_4",
                  0,
                  0,
                  {}
                ]
              ]
            ]
          },
          {
            "class_name": "Conv2D",
            "config": {
              "name": "conv2d_5",
              "trainable": true,
              "dtype": "float32",
              "filters": 128,
              "kernel_size": [
                3,
                3
              ],
              "strides": [
                1,
                1
              ],
              "padding": "same",
              "data_format": "channels_last",
              "dilation_rate": [
                1,
                1
              ],
              "groups": 1,
              "activation": "relu",
              "use_bias": true,
              "kernel_initializer": {
                "class_name": "GlorotUniform",
                "config": {
                  "seed": null
                }
              },
              "bias_initializer": {
                "class_name": "Zeros",
                "config": {}
              },
              "kernel_regularizer": null,
              "bias_regularizer": null,
              "activity_regularizer": null,
              "kernel_constraint": null,
              "bias_constraint": null
            },
            "name": "conv2d_5",
            "inbound_nodes": [
              [
                [
                  "batch_normalization_4",
                  0,
                  0,
                  {}
                ]
              ]
            ]
          },
          {
            "class_name": "BatchNormalization",
            "config": {
              "name": "batch_normalization_5",
              "trainable": true,
              "dtype": "float32",
              "axis": [
                3
              ],
              "momentum": 0.99,
              "epsilon": 0.001,
              "center": true,
              "scale": true,
              "beta_initializer": {
                "class_name": "Zeros",
                "config": {}
              },
              "gamma_initializer": {
                "class_name": "Ones",
                "config": {}
              },
              "moving_mean_initializer": {
                "class_name": "Zeros",
                "config": {}
              },
              "moving_variance_initializer": {
                "class_name": "Ones",
                "config": {}
              },
              "beta_regularizer": null,
              "gamma_regularizer": null,
              "beta_constraint": null,
              "gamma_constraint": null
            },
            "name": "batch_normalization_5",
            "inbound_nodes": [
              [
                [
                  "conv2d_5",
                  0,
                  0,
                  {}
                ]
              ]
            ]
          },
          {
            "class_name": "Flatten",
            "config": {
              "name": "flatten_7",
              "trainable": true,
              "dtype": "float32",
              "data_format": "channels_last"
            },
            "name": "flatten_7",
            "inbound_nodes": [
              [
                [
                  "batch_normalization_5",
                  0,
                  0,
                  {}
                ]
              ]
            ]
          },
          {
            "class_name": "Dense",
            "config": {
              "name": "dense_7",
              "trainable": true,
              "dtype": "float32",
              "units": 8,
              "activation": "linear",
              "use_bias": true,
              "kernel_initializer": {
                "class_name": "GlorotUniform",
                "config": {
                  "seed": null
                }
              },
              "bias_initializer": {
                "class_name": "Zeros",
                "config": {}
              },
              "kernel_regularizer": null,
              "bias_regularizer": null,
              "activity_regularizer": null,
              "kernel_constraint": null,
              "bias_constraint": null
            },
            "name": "dense_7",
            "inbound_nodes": [
              [
                [
                  "flatten_7",
                  0,
                  0,
                  {}
                ]
              ]
            ]
          }
        ],
        "input_layers": [
          [
            "input_19",
            0,
            0
          ]
        ],
        "output_layers": [
          [
            "dense_7",
            0,
            0
          ]
        ]
      }
    },
    "training_config": {
      "loss": {
        "class_name": "Huber",
        "config": {
          "reduction": "auto",
          "name": "huber_loss",
          "delta": 1.0
        }
      },
      "metrics": "mean_absolute_error",
      "weighted_metrics": null,
      "loss_weights": null,
      "optimizer_config": {
        "class_name": "Adam",
        "config": {
          "name": "Adam",
          "learning_rate": 9.999999747378752e-05,
          "decay": 0.0,
          "beta_1": 0.8999999761581421,
          "beta_2": 0.9990000128746033,
          "epsilon": 1e-07,
          "amsgrad": false
        }
      }
    }
  },
  "weightsManifest": [
    {
      "paths": [
        "efficientWeights.bin"
      ],
      "weights": [
        {
          "name": "batch_normalization_4/gamma",
          "shape": [
            64
          ],
          "dtype": "float32"
        },
        {
          "name": "batch_normalization_4/beta",
          "shape": [
            64
          ],
          "dtype": "float32"
        },
        {
          "name": "batch_normalization_4/moving_mean",
          "shape": [
            64
          ],
          "dtype": "float32"
        },
        {
          "name": "batch_normalization_4/moving_variance",
          "shape": [
            64
          ],
          "dtype": "float32"
        },
        {
          "name": "batch_normalization_5/gamma",
          "shape": [
            128
          ],
          "dtype": "float32"
        },
        {
          "name": "batch_normalization_5/beta",
          "shape": [
            128
          ],
          "dtype": "float32"
        },
        {
          "name": "batch_normalization_5/moving_mean",
          "shape": [
            128
          ],
          "dtype": "float32"
        },
        {
          "name": "batch_normalization_5/moving_variance",
          "shape": [
            128
          ],
          "dtype": "float32"
        },
        {
          "name": "conv2d_4/kernel",
          "shape": [
            3,
            3,
            80,
            64
          ],
          "dtype": "float32"
        },
        {
          "name": "conv2d_4/bias",
          "shape": [
            64
          ],
          "dtype": "float32"
        },
        {
          "name": "conv2d_5/kernel",
          "shape": [
            3,
            3,
            64,
            128
          ],
          "dtype": "float32"
        },
        {
          "name": "conv2d_5/bias",
          "shape": [
            128
          ],
          "dtype": "float32"
        },
        {
          "name": "dense_7/kernel",
          "shape": [
            6272,
            8
          ],
          "dtype": "float32"
        },
        {
          "name": "dense_7/bias",
          "shape": [
            8
          ],
          "dtype": "float32"
        },
        {
          "name": "block2a_se_reduce/kernel",
          "shape": [
            1,
            1,
            96,
            4
          ],
          "dtype": "float32"
        },
        {
          "name": "block2a_se_reduce/bias",
          "shape": [
            4
          ],
          "dtype": "float32"
        },
        {
          "name": "block2a_se_expand/kernel",
          "shape": [
            1,
            1,
            4,
            96
          ],
          "dtype": "float32"
        },
        {
          "name": "block2a_se_expand/bias",
          "shape": [
            96
          ],
          "dtype": "float32"
        },
        {
          "name": "block2a_project_conv/kernel",
          "shape": [
            1,
            1,
            96,
            24
          ],
          "dtype": "float32"
        },
        {
          "name": "block2a_project_bn/gamma",
          "shape": [
            24
          ],
          "dtype": "float32"
        },
        {
          "name": "block2a_project_bn/beta",
          "shape": [
            24
          ],
          "dtype": "float32"
        },
        {
          "name": "block2b_expand_conv/kernel",
          "shape": [
            1,
            1,
            24,
            144
          ],
          "dtype": "float32"
        },
        {
          "name": "block2b_expand_bn/gamma",
          "shape": [
            144
          ],
          "dtype": "float32"
        },
        {
          "name": "block2b_expand_bn/beta",
          "shape": [
            144
          ],
          "dtype": "float32"
        },
        {
          "name": "block2b_dwconv/depthwise_kernel",
          "shape": [
            3,
            3,
            144,
            1
          ],
          "dtype": "float32"
        },
        {
          "name": "block2b_bn/gamma",
          "shape": [
            144
          ],
          "dtype": "float32"
        },
        {
          "name": "block2b_bn/beta",
          "shape": [
            144
          ],
          "dtype": "float32"
        },
        {
          "name": "block2b_se_reduce/kernel",
          "shape": [
            1,
            1,
            144,
            6
          ],
          "dtype": "float32"
        },
        {
          "name": "block2b_se_reduce/bias",
          "shape": [
            6
          ],
          "dtype": "float32"
        },
        {
          "name": "block2b_se_expand/kernel",
          "shape": [
            1,
            1,
            6,
            144
          ],
          "dtype": "float32"
        },
        {
          "name": "block2b_se_expand/bias",
          "shape": [
            144
          ],
          "dtype": "float32"
        },
        {
          "name": "block2b_project_conv/kernel",
          "shape": [
            1,
            1,
            144,
            24
          ],
          "dtype": "float32"
        },
        {
          "name": "block2b_project_bn/gamma",
          "shape": [
            24
          ],
          "dtype": "float32"
        },
        {
          "name": "block2b_project_bn/beta",
          "shape": [
            24
          ],
          "dtype": "float32"
        },
        {
          "name": "block3a_expand_conv/kernel",
          "shape": [
            1,
            1,
            24,
            144
          ],
          "dtype": "float32"
        },
        {
          "name": "block3a_expand_bn/gamma",
          "shape": [
            144
          ],
          "dtype": "float32"
        },
        {
          "name": "block3a_expand_bn/beta",
          "shape": [
            144
          ],
          "dtype": "float32"
        },
        {
          "name": "block3a_dwconv/depthwise_kernel",
          "shape": [
            5,
            5,
            144,
            1
          ],
          "dtype": "float32"
        },
        {
          "name": "block3a_bn/gamma",
          "shape": [
            144
          ],
          "dtype": "float32"
        },
        {
          "name": "block3a_bn/beta",
          "shape": [
            144
          ],
          "dtype": "float32"
        },
        {
          "name": "block3a_se_reduce/kernel",
          "shape": [
            1,
            1,
            144,
            6
          ],
          "dtype": "float32"
        },
        {
          "name": "block3a_se_reduce/bias",
          "shape": [
            6
          ],
          "dtype": "float32"
        },
        {
          "name": "block3a_se_expand/kernel",
          "shape": [
            1,
            1,
            6,
            144
          ],
          "dtype": "float32"
        },
        {
          "name": "block3a_se_expand/bias",
          "shape": [
            144
          ],
          "dtype": "float32"
        },
        {
          "name": "block3a_project_conv/kernel",
          "shape": [
            1,
            1,
            144,
            40
          ],
          "dtype": "float32"
        },
        {
          "name": "block3a_project_bn/gamma",
          "shape": [
            40
          ],
          "dtype": "float32"
        },
        {
          "name": "block3a_project_bn/beta",
          "shape": [
            40
          ],
          "dtype": "float32"
        },
        {
          "name": "block3b_expand_conv/kernel",
          "shape": [
            1,
            1,
            40,
            240
          ],
          "dtype": "float32"
        },
        {
          "name": "block3b_expand_bn/gamma",
          "shape": [
            240
          ],
          "dtype": "float32"
        },
        {
          "name": "block3b_expand_bn/beta",
          "shape": [
            240
          ],
          "dtype": "float32"
        },
        {
          "name": "block3b_dwconv/depthwise_kernel",
          "shape": [
            5,
            5,
            240,
            1
          ],
          "dtype": "float32"
        },
        {
          "name": "block3b_bn/gamma",
          "shape": [
            240
          ],
          "dtype": "float32"
        },
        {
          "name": "block3b_bn/beta",
          "shape": [
            240
          ],
          "dtype": "float32"
        },
        {
          "name": "block3b_se_reduce/kernel",
          "shape": [
            1,
            1,
            240,
            10
          ],
          "dtype": "float32"
        },
        {
          "name": "block3b_se_reduce/bias",
          "shape": [
            10
          ],
          "dtype": "float32"
        },
        {
          "name": "block3b_se_expand/kernel",
          "shape": [
            1,
            1,
            10,
            240
          ],
          "dtype": "float32"
        },
        {
          "name": "block3b_se_expand/bias",
          "shape": [
            240
          ],
          "dtype": "float32"
        },
        {
          "name": "block3b_project_conv/kernel",
          "shape": [
            1,
            1,
            240,
            40
          ],
          "dtype": "float32"
        },
        {
          "name": "block3b_project_bn/gamma",
          "shape": [
            40
          ],
          "dtype": "float32"
        },
        {
          "name": "block3b_project_bn/beta",
          "shape": [
            40
          ],
          "dtype": "float32"
        },
        {
          "name": "block4a_expand_conv/kernel",
          "shape": [
            1,
            1,
            40,
            240
          ],
          "dtype": "float32"
        },
        {
          "name": "block4a_expand_bn/gamma",
          "shape": [
            240
          ],
          "dtype": "float32"
        },
        {
          "name": "block4a_expand_bn/beta",
          "shape": [
            240
          ],
          "dtype": "float32"
        },
        {
          "name": "block4a_dwconv/depthwise_kernel",
          "shape": [
            3,
            3,
            240,
            1
          ],
          "dtype": "float32"
        },
        {
          "name": "block4a_bn/gamma",
          "shape": [
            240
          ],
          "dtype": "float32"
        },
        {
          "name": "block4a_bn/beta",
          "shape": [
            240
          ],
          "dtype": "float32"
        },
        {
          "name": "block4a_se_reduce/kernel",
          "shape": [
            1,
            1,
            240,
            10
          ],
          "dtype": "float32"
        },
        {
          "name": "block4a_se_reduce/bias",
          "shape": [
            10
          ],
          "dtype": "float32"
        },
        {
          "name": "block4a_se_expand/kernel",
          "shape": [
            1,
            1,
            10,
            240
          ],
          "dtype": "float32"
        },
        {
          "name": "block4a_se_expand/bias",
          "shape": [
            240
          ],
          "dtype": "float32"
        },
        {
          "name": "block4a_project_conv/kernel",
          "shape": [
            1,
            1,
            240,
            80
          ],
          "dtype": "float32"
        },
        {
          "name": "block4a_project_bn/gamma",
          "shape": [
            80
          ],
          "dtype": "float32"
        },
        {
          "name": "block4a_project_bn/beta",
          "shape": [
            80
          ],
          "dtype": "float32"
        },
        {
          "name": "block4b_expand_conv/kernel",
          "shape": [
            1,
            1,
            80,
            480
          ],
          "dtype": "float32"
        },
        {
          "name": "block4b_expand_bn/gamma",
          "shape": [
            480
          ],
          "dtype": "float32"
        },
        {
          "name": "block4b_expand_bn/beta",
          "shape": [
            480
          ],
          "dtype": "float32"
        },
        {
          "name": "block4b_dwconv/depthwise_kernel",
          "shape": [
            3,
            3,
            480,
            1
          ],
          "dtype": "float32"
        },
        {
          "name": "block4b_bn/gamma",
          "shape": [
            480
          ],
          "dtype": "float32"
        },
        {
          "name": "block4b_bn/beta",
          "shape": [
            480
          ],
          "dtype": "float32"
        },
        {
          "name": "block4b_se_reduce/kernel",
          "shape": [
            1,
            1,
            480,
            20
          ],
          "dtype": "float32"
        },
        {
          "name": "block4b_se_reduce/bias",
          "shape": [
            20
          ],
          "dtype": "float32"
        },
        {
          "name": "block4b_se_expand/kernel",
          "shape": [
            1,
            1,
            20,
            480
          ],
          "dtype": "float32"
        },
        {
          "name": "block4b_se_expand/bias",
          "shape": [
            480
          ],
          "dtype": "float32"
        },
        {
          "name": "block4b_project_conv/kernel",
          "shape": [
            1,
            1,
            480,
            80
          ],
          "dtype": "float32"
        },
        {
          "name": "block4b_project_bn/gamma",
          "shape": [
            80
          ],
          "dtype": "float32"
        },
        {
          "name": "block4b_project_bn/beta",
          "shape": [
            80
          ],
          "dtype": "float32"
        },
        {
          "name": "normalization_6/mean",
          "shape": [
            3
          ],
          "dtype": "float32"
        },
        {
          "name": "normalization_6/variance",
          "shape": [
            3
          ],
          "dtype": "float32"
        },
        {
          "name": "normalization_6/count",
          "shape": [],
          "dtype": "int32"
        },
        {
          "name": "stem_conv/kernel",
          "shape": [
            3,
            3,
            3,
            32
          ],
          "dtype": "float32"
        },
        {
          "name": "stem_bn/gamma",
          "shape": [
            32
          ],
          "dtype": "float32"
        },
        {
          "name": "stem_bn/beta",
          "shape": [
            32
          ],
          "dtype": "float32"
        },
        {
          "name": "stem_bn/moving_mean",
          "shape": [
            32
          ],
          "dtype": "float32"
        },
        {
          "name": "stem_bn/moving_variance",
          "shape": [
            32
          ],
          "dtype": "float32"
        },
        {
          "name": "block1a_dwconv/depthwise_kernel",
          "shape": [
            3,
            3,
            32,
            1
          ],
          "dtype": "float32"
        },
        {
          "name": "block1a_bn/gamma",
          "shape": [
            32
          ],
          "dtype": "float32"
        },
        {
          "name": "block1a_bn/beta",
          "shape": [
            32
          ],
          "dtype": "float32"
        },
        {
          "name": "block1a_bn/moving_mean",
          "shape": [
            32
          ],
          "dtype": "float32"
        },
        {
          "name": "block1a_bn/moving_variance",
          "shape": [
            32
          ],
          "dtype": "float32"
        },
        {
          "name": "block1a_se_reduce/kernel",
          "shape": [
            1,
            1,
            32,
            8
          ],
          "dtype": "float32"
        },
        {
          "name": "block1a_se_reduce/bias",
          "shape": [
            8
          ],
          "dtype": "float32"
        },
        {
          "name": "block1a_se_expand/kernel",
          "shape": [
            1,
            1,
            8,
            32
          ],
          "dtype": "float32"
        },
        {
          "name": "block1a_se_expand/bias",
          "shape": [
            32
          ],
          "dtype": "float32"
        },
        {
          "name": "block1a_project_conv/kernel",
          "shape": [
            1,
            1,
            32,
            16
          ],
          "dtype": "float32"
        },
        {
          "name": "block1a_project_bn/gamma",
          "shape": [
            16
          ],
          "dtype": "float32"
        },
        {
          "name": "block1a_project_bn/beta",
          "shape": [
            16
          ],
          "dtype": "float32"
        },
        {
          "name": "block1a_project_bn/moving_mean",
          "shape": [
            16
          ],
          "dtype": "float32"
        },
        {
          "name": "block1a_project_bn/moving_variance",
          "shape": [
            16
          ],
          "dtype": "float32"
        },
        {
          "name": "block2a_expand_conv/kernel",
          "shape": [
            1,
            1,
            16,
            96
          ],
          "dtype": "float32"
        },
        {
          "name": "block2a_expand_bn/gamma",
          "shape": [
            96
          ],
          "dtype": "float32"
        },
        {
          "name": "block2a_expand_bn/beta",
          "shape": [
            96
          ],
          "dtype": "float32"
        },
        {
          "name": "block2a_expand_bn/moving_mean",
          "shape": [
            96
          ],
          "dtype": "float32"
        },
        {
          "name": "block2a_expand_bn/moving_variance",
          "shape": [
            96
          ],
          "dtype": "float32"
        },
        {
          "name": "block2a_dwconv/depthwise_kernel",
          "shape": [
            3,
            3,
            96,
            1
          ],
          "dtype": "float32"
        },
        {
          "name": "block2a_bn/gamma",
          "shape": [
            96
          ],
          "dtype": "float32"
        },
        {
          "name": "block2a_bn/beta",
          "shape": [
            96
          ],
          "dtype": "float32"
        },
        {
          "name": "block2a_bn/moving_mean",
          "shape": [
            96
          ],
          "dtype": "float32"
        },
        {
          "name": "block2a_bn/moving_variance",
          "shape": [
            96
          ],
          "dtype": "float32"
        },
        {
          "name": "block2a_project_bn/moving_mean",
          "shape": [
            24
          ],
          "dtype": "float32"
        },
        {
          "name": "block2a_project_bn/moving_variance",
          "shape": [
            24
          ],
          "dtype": "float32"
        },
        {
          "name": "block2b_expand_bn/moving_mean",
          "shape": [
            144
          ],
          "dtype": "float32"
        },
        {
          "name": "block2b_expand_bn/moving_variance",
          "shape": [
            144
          ],
          "dtype": "float32"
        },
        {
          "name": "block2b_bn/moving_mean",
          "shape": [
            144
          ],
          "dtype": "float32"
        },
        {
          "name": "block2b_bn/moving_variance",
          "shape": [
            144
          ],
          "dtype": "float32"
        },
        {
          "name": "block2b_project_bn/moving_mean",
          "shape": [
            24
          ],
          "dtype": "float32"
        },
        {
          "name": "block2b_project_bn/moving_variance",
          "shape": [
            24
          ],
          "dtype": "float32"
        },
        {
          "name": "block3a_expand_bn/moving_mean",
          "shape": [
            144
          ],
          "dtype": "float32"
        },
        {
          "name": "block3a_expand_bn/moving_variance",
          "shape": [
            144
          ],
          "dtype": "float32"
        },
        {
          "name": "block3a_bn/moving_mean",
          "shape": [
            144
          ],
          "dtype": "float32"
        },
        {
          "name": "block3a_bn/moving_variance",
          "shape": [
            144
          ],
          "dtype": "float32"
        },
        {
          "name": "block3a_project_bn/moving_mean",
          "shape": [
            40
          ],
          "dtype": "float32"
        },
        {
          "name": "block3a_project_bn/moving_variance",
          "shape": [
            40
          ],
          "dtype": "float32"
        },
        {
          "name": "block3b_expand_bn/moving_mean",
          "shape": [
            240
          ],
          "dtype": "float32"
        },
        {
          "name": "block3b_expand_bn/moving_variance",
          "shape": [
            240
          ],
          "dtype": "float32"
        },
        {
          "name": "block3b_bn/moving_mean",
          "shape": [
            240
          ],
          "dtype": "float32"
        },
        {
          "name": "block3b_bn/moving_variance",
          "shape": [
            240
          ],
          "dtype": "float32"
        },
        {
          "name": "block3b_project_bn/moving_mean",
          "shape": [
            40
          ],
          "dtype": "float32"
        },
        {
          "name": "block3b_project_bn/moving_variance",
          "shape": [
            40
          ],
          "dtype": "float32"
        },
        {
          "name": "block4a_expand_bn/moving_mean",
          "shape": [
            240
          ],
          "dtype": "float32"
        },
        {
          "name": "block4a_expand_bn/moving_variance",
          "shape": [
            240
          ],
          "dtype": "float32"
        },
        {
          "name": "block4a_bn/moving_mean",
          "shape": [
            240
          ],
          "dtype": "float32"
        },
        {
          "name": "block4a_bn/moving_variance",
          "shape": [
            240
          ],
          "dtype": "float32"
        },
        {
          "name": "block4a_project_bn/moving_mean",
          "shape": [
            80
          ],
          "dtype": "float32"
        },
        {
          "name": "block4a_project_bn/moving_variance",
          "shape": [
            80
          ],
          "dtype": "float32"
        },
        {
          "name": "block4b_expand_bn/moving_mean",
          "shape": [
            480
          ],
          "dtype": "float32"
        },
        {
          "name": "block4b_expand_bn/moving_variance",
          "shape": [
            480
          ],
          "dtype": "float32"
        },
        {
          "name": "block4b_bn/moving_mean",
          "shape": [
            480
          ],
          "dtype": "float32"
        },
        {
          "name": "block4b_bn/moving_variance",
          "shape": [
            480
          ],
          "dtype": "float32"
        },
        {
          "name": "block4b_project_bn/moving_mean",
          "shape": [
            80
          ],
          "dtype": "float32"
        },
        {
          "name": "block4b_project_bn/moving_variance",
          "shape": [
            80
          ],
          "dtype": "float32"
        }
      ]
    }
  ]
}