{
  "format": "layers-model",
  "generatedBy": "keras v2.4.0",
  "convertedBy": "TensorFlow.js Converter v2.3.0",
  "modelTopology": {
    "keras_version": "2.4.0",
    "backend": "tensorflow",
    "model_config": {
      "class_name": "Model",
      "config": {
        "name": "functional_3",
        "layers": [
          {
            "class_name": "InputLayer",
            "config": {
              "batch_input_shape": [
                null,
                160,
                160,
                3
              ],
              "dtype": "float32",
              "sparse": false,
              "ragged": false,
              "name": "input_2"
            },
            "name": "input_2",
            "inbound_nodes": []
          },
          {
            "class_name": "Model",
            "config": {
              "name": "functional_1",
              "layers": [
                {
                  "class_name": "InputLayer",
                  "config": {
                    "batch_input_shape": [
                      null,
                      160,
                      160,
                      3
                    ],
                    "dtype": "float32",
                    "sparse": false,
                    "ragged": false,
                    "name": "input_1"
                  },
                  "name": "input_1",
                  "inbound_nodes": []
                },
                {
                  "class_name": "ZeroPadding2D",
                  "config": {
                    "name": "Conv1_pad",
                    "trainable": false,
                    "dtype": "float32",
                    "padding": [
                      [
                        0,
                        1
                      ],
                      [
                        0,
                        1
                      ]
                    ],
                    "data_format": "channels_last"
                  },
                  "name": "Conv1_pad",
                  "inbound_nodes": [
                    [
                      [
                        "input_1",
                        0,
                        0,
                        {}
                      ]
                    ]
                  ]
                },
                {
                  "class_name": "Conv2D",
                  "config": {
                    "name": "Conv1",
                    "trainable": false,
                    "dtype": "float32",
                    "filters": 32,
                    "kernel_size": [
                      3,
                      3
                    ],
                    "strides": [
                      2,
                      2
                    ],
                    "padding": "valid",
                    "data_format": "channels_last",
                    "dilation_rate": [
                      1,
                      1
                    ],
                    "groups": 1,
                    "activation": "linear",
                    "use_bias": false,
                    "kernel_initializer": {
                      "class_name": "GlorotUniform",
                      "config": {
                        "seed": null
                      }
                    },
                    "bias_initializer": {
                      "class_name": "Zeros",
                      "config": {}
                    },
                    "kernel_regularizer": null,
                    "bias_regularizer": null,
                    "activity_regularizer": null,
                    "kernel_constraint": null,
                    "bias_constraint": null
                  },
                  "name": "Conv1",
                  "inbound_nodes": [
                    [
                      [
                        "Conv1_pad",
                        0,
                        0,
                        {}
                      ]
                    ]
                  ]
                },
                {
                  "class_name": "BatchNormalization",
                  "config": {
                    "name": "bn_Conv1",
                    "trainable": false,
                    "dtype": "float32",
                    "axis": [
                      3
                    ],
                    "momentum": 0.999,
                    "epsilon": 0.001,
                    "center": true,
                    "scale": true,
                    "beta_initializer": {
                      "class_name": "Zeros",
                      "config": {}
                    },
                    "gamma_initializer": {
                      "class_name": "Ones",
                      "config": {}
                    },
                    "moving_mean_initializer": {
                      "class_name": "Zeros",
                      "config": {}
                    },
                    "moving_variance_initializer": {
                      "class_name": "Ones",
                      "config": {}
                    },
                    "beta_regularizer": null,
                    "gamma_regularizer": null,
                    "beta_constraint": null,
                    "gamma_constraint": null
                  },
                  "name": "bn_Conv1",
                  "inbound_nodes": [
                    [
                      [
                        "Conv1",
                        0,
                        0,
                        {}
                      ]
                    ]
                  ]
                },
                {
                  "class_name": "ReLU",
                  "config": {
                    "name": "Conv1_relu",
                    "trainable": false,
                    "dtype": "float32",
                    "max_value": 6.0,
                    "negative_slope": 0.0,
                    "threshold": 0.0
                  },
                  "name": "Conv1_relu",
                  "inbound_nodes": [
                    [
                      [
                        "bn_Conv1",
                        0,
                        0,
                        {}
                      ]
                    ]
                  ]
                },
                {
                  "class_name": "DepthwiseConv2D",
                  "config": {
                    "name": "expanded_conv_depthwise",
                    "trainable": false,
                    "dtype": "float32",
                    "kernel_size": [
                      3,
                      3
                    ],
                    "strides": [
                      1,
                      1
                    ],
                    "padding": "same",
                    "data_format": "channels_last",
                    "dilation_rate": [
                      1,
                      1
                    ],
                    "groups": 1,
                    "activation": "linear",
                    "use_bias": false,
                    "bias_initializer": {
                      "class_name": "Zeros",
                      "config": {}
                    },
                    "bias_regularizer": null,
                    "activity_regularizer": null,
                    "bias_constraint": null,
                    "depth_multiplier": 1,
                    "depthwise_initializer": {
                      "class_name": "GlorotUniform",
                      "config": {
                        "seed": null
                      }
                    },
                    "depthwise_regularizer": null,
                    "depthwise_constraint": null
                  },
                  "name": "expanded_conv_depthwise",
                  "inbound_nodes": [
                    [
                      [
                        "Conv1_relu",
                        0,
                        0,
                        {}
                      ]
                    ]
                  ]
                },
                {
                  "class_name": "BatchNormalization",
                  "config": {
                    "name": "expanded_conv_depthwise_BN",
                    "trainable": false,
                    "dtype": "float32",
                    "axis": [
                      3
                    ],
                    "momentum": 0.999,
                    "epsilon": 0.001,
                    "center": true,
                    "scale": true,
                    "beta_initializer": {
                      "class_name": "Zeros",
                      "config": {}
                    },
                    "gamma_initializer": {
                      "class_name": "Ones",
                      "config": {}
                    },
                    "moving_mean_initializer": {
                      "class_name": "Zeros",
                      "config": {}
                    },
                    "moving_variance_initializer": {
                      "class_name": "Ones",
                      "config": {}
                    },
                    "beta_regularizer": null,
                    "gamma_regularizer": null,
                    "beta_constraint": null,
                    "gamma_constraint": null
                  },
                  "name": "expanded_conv_depthwise_BN",
                  "inbound_nodes": [
                    [
                      [
                        "expanded_conv_depthwise",
                        0,
                        0,
                        {}
                      ]
                    ]
                  ]
                },
                {
                  "class_name": "ReLU",
                  "config": {
                    "name": "expanded_conv_depthwise_relu",
                    "trainable": false,
                    "dtype": "float32",
                    "max_value": 6.0,
                    "negative_slope": 0.0,
                    "threshold": 0.0
                  },
                  "name": "expanded_conv_depthwise_relu",
                  "inbound_nodes": [
                    [
                      [
                        "expanded_conv_depthwise_BN",
                        0,
                        0,
                        {}
                      ]
                    ]
                  ]
                },
                {
                  "class_name": "Conv2D",
                  "config": {
                    "name": "expanded_conv_project",
                    "trainable": false,
                    "dtype": "float32",
                    "filters": 16,
                    "kernel_size": [
                      1,
                      1
                    ],
                    "strides": [
                      1,
                      1
                    ],
                    "padding": "same",
                    "data_format": "channels_last",
                    "dilation_rate": [
                      1,
                      1
                    ],
                    "groups": 1,
                    "activation": "linear",
                    "use_bias": false,
                    "kernel_initializer": {
                      "class_name": "GlorotUniform",
                      "config": {
                        "seed": null
                      }
                    },
                    "bias_initializer": {
                      "class_name": "Zeros",
                      "config": {}
                    },
                    "kernel_regularizer": null,
                    "bias_regularizer": null,
                    "activity_regularizer": null,
                    "kernel_constraint": null,
                    "bias_constraint": null
                  },
                  "name": "expanded_conv_project",
                  "inbound_nodes": [
                    [
                      [
                        "expanded_conv_depthwise_relu",
                        0,
                        0,
                        {}
                      ]
                    ]
                  ]
                },
                {
                  "class_name": "BatchNormalization",
                  "config": {
                    "name": "expanded_conv_project_BN",
                    "trainable": false,
                    "dtype": "float32",
                    "axis": [
                      3
                    ],
                    "momentum": 0.999,
                    "epsilon": 0.001,
                    "center": true,
                    "scale": true,
                    "beta_initializer": {
                      "class_name": "Zeros",
                      "config": {}
                    },
                    "gamma_initializer": {
                      "class_name": "Ones",
                      "config": {}
                    },
                    "moving_mean_initializer": {
                      "class_name": "Zeros",
                      "config": {}
                    },
                    "moving_variance_initializer": {
                      "class_name": "Ones",
                      "config": {}
                    },
                    "beta_regularizer": null,
                    "gamma_regularizer": null,
                    "beta_constraint": null,
                    "gamma_constraint": null
                  },
                  "name": "expanded_conv_project_BN",
                  "inbound_nodes": [
                    [
                      [
                        "expanded_conv_project",
                        0,
                        0,
                        {}
                      ]
                    ]
                  ]
                },
                {
                  "class_name": "Conv2D",
                  "config": {
                    "name": "block_1_expand",
                    "trainable": false,
                    "dtype": "float32",
                    "filters": 96,
                    "kernel_size": [
                      1,
                      1
                    ],
                    "strides": [
                      1,
                      1
                    ],
                    "padding": "same",
                    "data_format": "channels_last",
                    "dilation_rate": [
                      1,
                      1
                    ],
                    "groups": 1,
                    "activation": "linear",
                    "use_bias": false,
                    "kernel_initializer": {
                      "class_name": "GlorotUniform",
                      "config": {
                        "seed": null
                      }
                    },
                    "bias_initializer": {
                      "class_name": "Zeros",
                      "config": {}
                    },
                    "kernel_regularizer": null,
                    "bias_regularizer": null,
                    "activity_regularizer": null,
                    "kernel_constraint": null,
                    "bias_constraint": null
                  },
                  "name": "block_1_expand",
                  "inbound_nodes": [
                    [
                      [
                        "expanded_conv_project_BN",
                        0,
                        0,
                        {}
                      ]
                    ]
                  ]
                },
                {
                  "class_name": "BatchNormalization",
                  "config": {
                    "name": "block_1_expand_BN",
                    "trainable": false,
                    "dtype": "float32",
                    "axis": [
                      3
                    ],
                    "momentum": 0.999,
                    "epsilon": 0.001,
                    "center": true,
                    "scale": true,
                    "beta_initializer": {
                      "class_name": "Zeros",
                      "config": {}
                    },
                    "gamma_initializer": {
                      "class_name": "Ones",
                      "config": {}
                    },
                    "moving_mean_initializer": {
                      "class_name": "Zeros",
                      "config": {}
                    },
                    "moving_variance_initializer": {
                      "class_name": "Ones",
                      "config": {}
                    },
                    "beta_regularizer": null,
                    "gamma_regularizer": null,
                    "beta_constraint": null,
                    "gamma_constraint": null
                  },
                  "name": "block_1_expand_BN",
                  "inbound_nodes": [
                    [
                      [
                        "block_1_expand",
                        0,
                        0,
                        {}
                      ]
                    ]
                  ]
                },
                {
                  "class_name": "ReLU",
                  "config": {
                    "name": "block_1_expand_relu",
                    "trainable": false,
                    "dtype": "float32",
                    "max_value": 6.0,
                    "negative_slope": 0.0,
                    "threshold": 0.0
                  },
                  "name": "block_1_expand_relu",
                  "inbound_nodes": [
                    [
                      [
                        "block_1_expand_BN",
                        0,
                        0,
                        {}
                      ]
                    ]
                  ]
                },
                {
                  "class_name": "ZeroPadding2D",
                  "config": {
                    "name": "block_1_pad",
                    "trainable": false,
                    "dtype": "float32",
                    "padding": [
                      [
                        0,
                        1
                      ],
                      [
                        0,
                        1
                      ]
                    ],
                    "data_format": "channels_last"
                  },
                  "name": "block_1_pad",
                  "inbound_nodes": [
                    [
                      [
                        "block_1_expand_relu",
                        0,
                        0,
                        {}
                      ]
                    ]
                  ]
                },
                {
                  "class_name": "DepthwiseConv2D",
                  "config": {
                    "name": "block_1_depthwise",
                    "trainable": false,
                    "dtype": "float32",
                    "kernel_size": [
                      3,
                      3
                    ],
                    "strides": [
                      2,
                      2
                    ],
                    "padding": "valid",
                    "data_format": "channels_last",
                    "dilation_rate": [
                      1,
                      1
                    ],
                    "groups": 1,
                    "activation": "linear",
                    "use_bias": false,
                    "bias_initializer": {
                      "class_name": "Zeros",
                      "config": {}
                    },
                    "bias_regularizer": null,
                    "activity_regularizer": null,
                    "bias_constraint": null,
                    "depth_multiplier": 1,
                    "depthwise_initializer": {
                      "class_name": "GlorotUniform",
                      "config": {
                        "seed": null
                      }
                    },
                    "depthwise_regularizer": null,
                    "depthwise_constraint": null
                  },
                  "name": "block_1_depthwise",
                  "inbound_nodes": [
                    [
                      [
                        "block_1_pad",
                        0,
                        0,
                        {}
                      ]
                    ]
                  ]
                },
                {
                  "class_name": "BatchNormalization",
                  "config": {
                    "name": "block_1_depthwise_BN",
                    "trainable": false,
                    "dtype": "float32",
                    "axis": [
                      3
                    ],
                    "momentum": 0.999,
                    "epsilon": 0.001,
                    "center": true,
                    "scale": true,
                    "beta_initializer": {
                      "class_name": "Zeros",
                      "config": {}
                    },
                    "gamma_initializer": {
                      "class_name": "Ones",
                      "config": {}
                    },
                    "moving_mean_initializer": {
                      "class_name": "Zeros",
                      "config": {}
                    },
                    "moving_variance_initializer": {
                      "class_name": "Ones",
                      "config": {}
                    },
                    "beta_regularizer": null,
                    "gamma_regularizer": null,
                    "beta_constraint": null,
                    "gamma_constraint": null
                  },
                  "name": "block_1_depthwise_BN",
                  "inbound_nodes": [
                    [
                      [
                        "block_1_depthwise",
                        0,
                        0,
                        {}
                      ]
                    ]
                  ]
                },
                {
                  "class_name": "ReLU",
                  "config": {
                    "name": "block_1_depthwise_relu",
                    "trainable": false,
                    "dtype": "float32",
                    "max_value": 6.0,
                    "negative_slope": 0.0,
                    "threshold": 0.0
                  },
                  "name": "block_1_depthwise_relu",
                  "inbound_nodes": [
                    [
                      [
                        "block_1_depthwise_BN",
                        0,
                        0,
                        {}
                      ]
                    ]
                  ]
                },
                {
                  "class_name": "Conv2D",
                  "config": {
                    "name": "block_1_project",
                    "trainable": false,
                    "dtype": "float32",
                    "filters": 24,
                    "kernel_size": [
                      1,
                      1
                    ],
                    "strides": [
                      1,
                      1
                    ],
                    "padding": "same",
                    "data_format": "channels_last",
                    "dilation_rate": [
                      1,
                      1
                    ],
                    "groups": 1,
                    "activation": "linear",
                    "use_bias": false,
                    "kernel_initializer": {
                      "class_name": "GlorotUniform",
                      "config": {
                        "seed": null
                      }
                    },
                    "bias_initializer": {
                      "class_name": "Zeros",
                      "config": {}
                    },
                    "kernel_regularizer": null,
                    "bias_regularizer": null,
                    "activity_regularizer": null,
                    "kernel_constraint": null,
                    "bias_constraint": null
                  },
                  "name": "block_1_project",
                  "inbound_nodes": [
                    [
                      [
                        "block_1_depthwise_relu",
                        0,
                        0,
                        {}
                      ]
                    ]
                  ]
                },
                {
                  "class_name": "BatchNormalization",
                  "config": {
                    "name": "block_1_project_BN",
                    "trainable": false,
                    "dtype": "float32",
                    "axis": [
                      3
                    ],
                    "momentum": 0.999,
                    "epsilon": 0.001,
                    "center": true,
                    "scale": true,
                    "beta_initializer": {
                      "class_name": "Zeros",
                      "config": {}
                    },
                    "gamma_initializer": {
                      "class_name": "Ones",
                      "config": {}
                    },
                    "moving_mean_initializer": {
                      "class_name": "Zeros",
                      "config": {}
                    },
                    "moving_variance_initializer": {
                      "class_name": "Ones",
                      "config": {}
                    },
                    "beta_regularizer": null,
                    "gamma_regularizer": null,
                    "beta_constraint": null,
                    "gamma_constraint": null
                  },
                  "name": "block_1_project_BN",
                  "inbound_nodes": [
                    [
                      [
                        "block_1_project",
                        0,
                        0,
                        {}
                      ]
                    ]
                  ]
                },
                {
                  "class_name": "Conv2D",
                  "config": {
                    "name": "block_2_expand",
                    "trainable": false,
                    "dtype": "float32",
                    "filters": 144,
                    "kernel_size": [
                      1,
                      1
                    ],
                    "strides": [
                      1,
                      1
                    ],
                    "padding": "same",
                    "data_format": "channels_last",
                    "dilation_rate": [
                      1,
                      1
                    ],
                    "groups": 1,
                    "activation": "linear",
                    "use_bias": false,
                    "kernel_initializer": {
                      "class_name": "GlorotUniform",
                      "config": {
                        "seed": null
                      }
                    },
                    "bias_initializer": {
                      "class_name": "Zeros",
                      "config": {}
                    },
                    "kernel_regularizer": null,
                    "bias_regularizer": null,
                    "activity_regularizer": null,
                    "kernel_constraint": null,
                    "bias_constraint": null
                  },
                  "name": "block_2_expand",
                  "inbound_nodes": [
                    [
                      [
                        "block_1_project_BN",
                        0,
                        0,
                        {}
                      ]
                    ]
                  ]
                },
                {
                  "class_name": "BatchNormalization",
                  "config": {
                    "name": "block_2_expand_BN",
                    "trainable": false,
                    "dtype": "float32",
                    "axis": [
                      3
                    ],
                    "momentum": 0.999,
                    "epsilon": 0.001,
                    "center": true,
                    "scale": true,
                    "beta_initializer": {
                      "class_name": "Zeros",
                      "config": {}
                    },
                    "gamma_initializer": {
                      "class_name": "Ones",
                      "config": {}
                    },
                    "moving_mean_initializer": {
                      "class_name": "Zeros",
                      "config": {}
                    },
                    "moving_variance_initializer": {
                      "class_name": "Ones",
                      "config": {}
                    },
                    "beta_regularizer": null,
                    "gamma_regularizer": null,
                    "beta_constraint": null,
                    "gamma_constraint": null
                  },
                  "name": "block_2_expand_BN",
                  "inbound_nodes": [
                    [
                      [
                        "block_2_expand",
                        0,
                        0,
                        {}
                      ]
                    ]
                  ]
                },
                {
                  "class_name": "ReLU",
                  "config": {
                    "name": "block_2_expand_relu",
                    "trainable": false,
                    "dtype": "float32",
                    "max_value": 6.0,
                    "negative_slope": 0.0,
                    "threshold": 0.0
                  },
                  "name": "block_2_expand_relu",
                  "inbound_nodes": [
                    [
                      [
                        "block_2_expand_BN",
                        0,
                        0,
                        {}
                      ]
                    ]
                  ]
                },
                {
                  "class_name": "DepthwiseConv2D",
                  "config": {
                    "name": "block_2_depthwise",
                    "trainable": false,
                    "dtype": "float32",
                    "kernel_size": [
                      3,
                      3
                    ],
                    "strides": [
                      1,
                      1
                    ],
                    "padding": "same",
                    "data_format": "channels_last",
                    "dilation_rate": [
                      1,
                      1
                    ],
                    "groups": 1,
                    "activation": "linear",
                    "use_bias": false,
                    "bias_initializer": {
                      "class_name": "Zeros",
                      "config": {}
                    },
                    "bias_regularizer": null,
                    "activity_regularizer": null,
                    "bias_constraint": null,
                    "depth_multiplier": 1,
                    "depthwise_initializer": {
                      "class_name": "GlorotUniform",
                      "config": {
                        "seed": null
                      }
                    },
                    "depthwise_regularizer": null,
                    "depthwise_constraint": null
                  },
                  "name": "block_2_depthwise",
                  "inbound_nodes": [
                    [
                      [
                        "block_2_expand_relu",
                        0,
                        0,
                        {}
                      ]
                    ]
                  ]
                },
                {
                  "class_name": "BatchNormalization",
                  "config": {
                    "name": "block_2_depthwise_BN",
                    "trainable": false,
                    "dtype": "float32",
                    "axis": [
                      3
                    ],
                    "momentum": 0.999,
                    "epsilon": 0.001,
                    "center": true,
                    "scale": true,
                    "beta_initializer": {
                      "class_name": "Zeros",
                      "config": {}
                    },
                    "gamma_initializer": {
                      "class_name": "Ones",
                      "config": {}
                    },
                    "moving_mean_initializer": {
                      "class_name": "Zeros",
                      "config": {}
                    },
                    "moving_variance_initializer": {
                      "class_name": "Ones",
                      "config": {}
                    },
                    "beta_regularizer": null,
                    "gamma_regularizer": null,
                    "beta_constraint": null,
                    "gamma_constraint": null
                  },
                  "name": "block_2_depthwise_BN",
                  "inbound_nodes": [
                    [
                      [
                        "block_2_depthwise",
                        0,
                        0,
                        {}
                      ]
                    ]
                  ]
                },
                {
                  "class_name": "ReLU",
                  "config": {
                    "name": "block_2_depthwise_relu",
                    "trainable": false,
                    "dtype": "float32",
                    "max_value": 6.0,
                    "negative_slope": 0.0,
                    "threshold": 0.0
                  },
                  "name": "block_2_depthwise_relu",
                  "inbound_nodes": [
                    [
                      [
                        "block_2_depthwise_BN",
                        0,
                        0,
                        {}
                      ]
                    ]
                  ]
                },
                {
                  "class_name": "Conv2D",
                  "config": {
                    "name": "block_2_project",
                    "trainable": false,
                    "dtype": "float32",
                    "filters": 24,
                    "kernel_size": [
                      1,
                      1
                    ],
                    "strides": [
                      1,
                      1
                    ],
                    "padding": "same",
                    "data_format": "channels_last",
                    "dilation_rate": [
                      1,
                      1
                    ],
                    "groups": 1,
                    "activation": "linear",
                    "use_bias": false,
                    "kernel_initializer": {
                      "class_name": "GlorotUniform",
                      "config": {
                        "seed": null
                      }
                    },
                    "bias_initializer": {
                      "class_name": "Zeros",
                      "config": {}
                    },
                    "kernel_regularizer": null,
                    "bias_regularizer": null,
                    "activity_regularizer": null,
                    "kernel_constraint": null,
                    "bias_constraint": null
                  },
                  "name": "block_2_project",
                  "inbound_nodes": [
                    [
                      [
                        "block_2_depthwise_relu",
                        0,
                        0,
                        {}
                      ]
                    ]
                  ]
                },
                {
                  "class_name": "BatchNormalization",
                  "config": {
                    "name": "block_2_project_BN",
                    "trainable": false,
                    "dtype": "float32",
                    "axis": [
                      3
                    ],
                    "momentum": 0.999,
                    "epsilon": 0.001,
                    "center": true,
                    "scale": true,
                    "beta_initializer": {
                      "class_name": "Zeros",
                      "config": {}
                    },
                    "gamma_initializer": {
                      "class_name": "Ones",
                      "config": {}
                    },
                    "moving_mean_initializer": {
                      "class_name": "Zeros",
                      "config": {}
                    },
                    "moving_variance_initializer": {
                      "class_name": "Ones",
                      "config": {}
                    },
                    "beta_regularizer": null,
                    "gamma_regularizer": null,
                    "beta_constraint": null,
                    "gamma_constraint": null
                  },
                  "name": "block_2_project_BN",
                  "inbound_nodes": [
                    [
                      [
                        "block_2_project",
                        0,
                        0,
                        {}
                      ]
                    ]
                  ]
                },
                {
                  "class_name": "Add",
                  "config": {
                    "name": "block_2_add",
                    "trainable": false,
                    "dtype": "float32"
                  },
                  "name": "block_2_add",
                  "inbound_nodes": [
                    [
                      [
                        "block_1_project_BN",
                        0,
                        0,
                        {}
                      ],
                      [
                        "block_2_project_BN",
                        0,
                        0,
                        {}
                      ]
                    ]
                  ]
                },
                {
                  "class_name": "Conv2D",
                  "config": {
                    "name": "block_3_expand",
                    "trainable": false,
                    "dtype": "float32",
                    "filters": 144,
                    "kernel_size": [
                      1,
                      1
                    ],
                    "strides": [
                      1,
                      1
                    ],
                    "padding": "same",
                    "data_format": "channels_last",
                    "dilation_rate": [
                      1,
                      1
                    ],
                    "groups": 1,
                    "activation": "linear",
                    "use_bias": false,
                    "kernel_initializer": {
                      "class_name": "GlorotUniform",
                      "config": {
                        "seed": null
                      }
                    },
                    "bias_initializer": {
                      "class_name": "Zeros",
                      "config": {}
                    },
                    "kernel_regularizer": null,
                    "bias_regularizer": null,
                    "activity_regularizer": null,
                    "kernel_constraint": null,
                    "bias_constraint": null
                  },
                  "name": "block_3_expand",
                  "inbound_nodes": [
                    [
                      [
                        "block_2_add",
                        0,
                        0,
                        {}
                      ]
                    ]
                  ]
                },
                {
                  "class_name": "BatchNormalization",
                  "config": {
                    "name": "block_3_expand_BN",
                    "trainable": false,
                    "dtype": "float32",
                    "axis": [
                      3
                    ],
                    "momentum": 0.999,
                    "epsilon": 0.001,
                    "center": true,
                    "scale": true,
                    "beta_initializer": {
                      "class_name": "Zeros",
                      "config": {}
                    },
                    "gamma_initializer": {
                      "class_name": "Ones",
                      "config": {}
                    },
                    "moving_mean_initializer": {
                      "class_name": "Zeros",
                      "config": {}
                    },
                    "moving_variance_initializer": {
                      "class_name": "Ones",
                      "config": {}
                    },
                    "beta_regularizer": null,
                    "gamma_regularizer": null,
                    "beta_constraint": null,
                    "gamma_constraint": null
                  },
                  "name": "block_3_expand_BN",
                  "inbound_nodes": [
                    [
                      [
                        "block_3_expand",
                        0,
                        0,
                        {}
                      ]
                    ]
                  ]
                },
                {
                  "class_name": "ReLU",
                  "config": {
                    "name": "block_3_expand_relu",
                    "trainable": false,
                    "dtype": "float32",
                    "max_value": 6.0,
                    "negative_slope": 0.0,
                    "threshold": 0.0
                  },
                  "name": "block_3_expand_relu",
                  "inbound_nodes": [
                    [
                      [
                        "block_3_expand_BN",
                        0,
                        0,
                        {}
                      ]
                    ]
                  ]
                },
                {
                  "class_name": "ZeroPadding2D",
                  "config": {
                    "name": "block_3_pad",
                    "trainable": false,
                    "dtype": "float32",
                    "padding": [
                      [
                        0,
                        1
                      ],
                      [
                        0,
                        1
                      ]
                    ],
                    "data_format": "channels_last"
                  },
                  "name": "block_3_pad",
                  "inbound_nodes": [
                    [
                      [
                        "block_3_expand_relu",
                        0,
                        0,
                        {}
                      ]
                    ]
                  ]
                },
                {
                  "class_name": "DepthwiseConv2D",
                  "config": {
                    "name": "block_3_depthwise",
                    "trainable": false,
                    "dtype": "float32",
                    "kernel_size": [
                      3,
                      3
                    ],
                    "strides": [
                      2,
                      2
                    ],
                    "padding": "valid",
                    "data_format": "channels_last",
                    "dilation_rate": [
                      1,
                      1
                    ],
                    "groups": 1,
                    "activation": "linear",
                    "use_bias": false,
                    "bias_initializer": {
                      "class_name": "Zeros",
                      "config": {}
                    },
                    "bias_regularizer": null,
                    "activity_regularizer": null,
                    "bias_constraint": null,
                    "depth_multiplier": 1,
                    "depthwise_initializer": {
                      "class_name": "GlorotUniform",
                      "config": {
                        "seed": null
                      }
                    },
                    "depthwise_regularizer": null,
                    "depthwise_constraint": null
                  },
                  "name": "block_3_depthwise",
                  "inbound_nodes": [
                    [
                      [
                        "block_3_pad",
                        0,
                        0,
                        {}
                      ]
                    ]
                  ]
                },
                {
                  "class_name": "BatchNormalization",
                  "config": {
                    "name": "block_3_depthwise_BN",
                    "trainable": false,
                    "dtype": "float32",
                    "axis": [
                      3
                    ],
                    "momentum": 0.999,
                    "epsilon": 0.001,
                    "center": true,
                    "scale": true,
                    "beta_initializer": {
                      "class_name": "Zeros",
                      "config": {}
                    },
                    "gamma_initializer": {
                      "class_name": "Ones",
                      "config": {}
                    },
                    "moving_mean_initializer": {
                      "class_name": "Zeros",
                      "config": {}
                    },
                    "moving_variance_initializer": {
                      "class_name": "Ones",
                      "config": {}
                    },
                    "beta_regularizer": null,
                    "gamma_regularizer": null,
                    "beta_constraint": null,
                    "gamma_constraint": null
                  },
                  "name": "block_3_depthwise_BN",
                  "inbound_nodes": [
                    [
                      [
                        "block_3_depthwise",
                        0,
                        0,
                        {}
                      ]
                    ]
                  ]
                },
                {
                  "class_name": "ReLU",
                  "config": {
                    "name": "block_3_depthwise_relu",
                    "trainable": true,
                    "dtype": "float32",
                    "max_value": 6.0,
                    "negative_slope": 0.0,
                    "threshold": 0.0
                  },
                  "name": "block_3_depthwise_relu",
                  "inbound_nodes": [
                    [
                      [
                        "block_3_depthwise_BN",
                        0,
                        0,
                        {}
                      ]
                    ]
                  ]
                },
                {
                  "class_name": "Conv2D",
                  "config": {
                    "name": "block_3_project",
                    "trainable": true,
                    "dtype": "float32",
                    "filters": 32,
                    "kernel_size": [
                      1,
                      1
                    ],
                    "strides": [
                      1,
                      1
                    ],
                    "padding": "same",
                    "data_format": "channels_last",
                    "dilation_rate": [
                      1,
                      1
                    ],
                    "groups": 1,
                    "activation": "linear",
                    "use_bias": false,
                    "kernel_initializer": {
                      "class_name": "GlorotUniform",
                      "config": {
                        "seed": null
                      }
                    },
                    "bias_initializer": {
                      "class_name": "Zeros",
                      "config": {}
                    },
                    "kernel_regularizer": null,
                    "bias_regularizer": null,
                    "activity_regularizer": null,
                    "kernel_constraint": null,
                    "bias_constraint": null
                  },
                  "name": "block_3_project",
                  "inbound_nodes": [
                    [
                      [
                        "block_3_depthwise_relu",
                        0,
                        0,
                        {}
                      ]
                    ]
                  ]
                },
                {
                  "class_name": "BatchNormalization",
                  "config": {
                    "name": "block_3_project_BN",
                    "trainable": true,
                    "dtype": "float32",
                    "axis": [
                      3
                    ],
                    "momentum": 0.999,
                    "epsilon": 0.001,
                    "center": true,
                    "scale": true,
                    "beta_initializer": {
                      "class_name": "Zeros",
                      "config": {}
                    },
                    "gamma_initializer": {
                      "class_name": "Ones",
                      "config": {}
                    },
                    "moving_mean_initializer": {
                      "class_name": "Zeros",
                      "config": {}
                    },
                    "moving_variance_initializer": {
                      "class_name": "Ones",
                      "config": {}
                    },
                    "beta_regularizer": null,
                    "gamma_regularizer": null,
                    "beta_constraint": null,
                    "gamma_constraint": null
                  },
                  "name": "block_3_project_BN",
                  "inbound_nodes": [
                    [
                      [
                        "block_3_project",
                        0,
                        0,
                        {}
                      ]
                    ]
                  ]
                },
                {
                  "class_name": "Conv2D",
                  "config": {
                    "name": "block_4_expand",
                    "trainable": true,
                    "dtype": "float32",
                    "filters": 192,
                    "kernel_size": [
                      1,
                      1
                    ],
                    "strides": [
                      1,
                      1
                    ],
                    "padding": "same",
                    "data_format": "channels_last",
                    "dilation_rate": [
                      1,
                      1
                    ],
                    "groups": 1,
                    "activation": "linear",
                    "use_bias": false,
                    "kernel_initializer": {
                      "class_name": "GlorotUniform",
                      "config": {
                        "seed": null
                      }
                    },
                    "bias_initializer": {
                      "class_name": "Zeros",
                      "config": {}
                    },
                    "kernel_regularizer": null,
                    "bias_regularizer": null,
                    "activity_regularizer": null,
                    "kernel_constraint": null,
                    "bias_constraint": null
                  },
                  "name": "block_4_expand",
                  "inbound_nodes": [
                    [
                      [
                        "block_3_project_BN",
                        0,
                        0,
                        {}
                      ]
                    ]
                  ]
                },
                {
                  "class_name": "BatchNormalization",
                  "config": {
                    "name": "block_4_expand_BN",
                    "trainable": true,
                    "dtype": "float32",
                    "axis": [
                      3
                    ],
                    "momentum": 0.999,
                    "epsilon": 0.001,
                    "center": true,
                    "scale": true,
                    "beta_initializer": {
                      "class_name": "Zeros",
                      "config": {}
                    },
                    "gamma_initializer": {
                      "class_name": "Ones",
                      "config": {}
                    },
                    "moving_mean_initializer": {
                      "class_name": "Zeros",
                      "config": {}
                    },
                    "moving_variance_initializer": {
                      "class_name": "Ones",
                      "config": {}
                    },
                    "beta_regularizer": null,
                    "gamma_regularizer": null,
                    "beta_constraint": null,
                    "gamma_constraint": null
                  },
                  "name": "block_4_expand_BN",
                  "inbound_nodes": [
                    [
                      [
                        "block_4_expand",
                        0,
                        0,
                        {}
                      ]
                    ]
                  ]
                },
                {
                  "class_name": "ReLU",
                  "config": {
                    "name": "block_4_expand_relu",
                    "trainable": true,
                    "dtype": "float32",
                    "max_value": 6.0,
                    "negative_slope": 0.0,
                    "threshold": 0.0
                  },
                  "name": "block_4_expand_relu",
                  "inbound_nodes": [
                    [
                      [
                        "block_4_expand_BN",
                        0,
                        0,
                        {}
                      ]
                    ]
                  ]
                },
                {
                  "class_name": "DepthwiseConv2D",
                  "config": {
                    "name": "block_4_depthwise",
                    "trainable": true,
                    "dtype": "float32",
                    "kernel_size": [
                      3,
                      3
                    ],
                    "strides": [
                      1,
                      1
                    ],
                    "padding": "same",
                    "data_format": "channels_last",
                    "dilation_rate": [
                      1,
                      1
                    ],
                    "groups": 1,
                    "activation": "linear",
                    "use_bias": false,
                    "bias_initializer": {
                      "class_name": "Zeros",
                      "config": {}
                    },
                    "bias_regularizer": null,
                    "activity_regularizer": null,
                    "bias_constraint": null,
                    "depth_multiplier": 1,
                    "depthwise_initializer": {
                      "class_name": "GlorotUniform",
                      "config": {
                        "seed": null
                      }
                    },
                    "depthwise_regularizer": null,
                    "depthwise_constraint": null
                  },
                  "name": "block_4_depthwise",
                  "inbound_nodes": [
                    [
                      [
                        "block_4_expand_relu",
                        0,
                        0,
                        {}
                      ]
                    ]
                  ]
                },
                {
                  "class_name": "BatchNormalization",
                  "config": {
                    "name": "block_4_depthwise_BN",
                    "trainable": true,
                    "dtype": "float32",
                    "axis": [
                      3
                    ],
                    "momentum": 0.999,
                    "epsilon": 0.001,
                    "center": true,
                    "scale": true,
                    "beta_initializer": {
                      "class_name": "Zeros",
                      "config": {}
                    },
                    "gamma_initializer": {
                      "class_name": "Ones",
                      "config": {}
                    },
                    "moving_mean_initializer": {
                      "class_name": "Zeros",
                      "config": {}
                    },
                    "moving_variance_initializer": {
                      "class_name": "Ones",
                      "config": {}
                    },
                    "beta_regularizer": null,
                    "gamma_regularizer": null,
                    "beta_constraint": null,
                    "gamma_constraint": null
                  },
                  "name": "block_4_depthwise_BN",
                  "inbound_nodes": [
                    [
                      [
                        "block_4_depthwise",
                        0,
                        0,
                        {}
                      ]
                    ]
                  ]
                },
                {
                  "class_name": "ReLU",
                  "config": {
                    "name": "block_4_depthwise_relu",
                    "trainable": true,
                    "dtype": "float32",
                    "max_value": 6.0,
                    "negative_slope": 0.0,
                    "threshold": 0.0
                  },
                  "name": "block_4_depthwise_relu",
                  "inbound_nodes": [
                    [
                      [
                        "block_4_depthwise_BN",
                        0,
                        0,
                        {}
                      ]
                    ]
                  ]
                },
                {
                  "class_name": "Conv2D",
                  "config": {
                    "name": "block_4_project",
                    "trainable": true,
                    "dtype": "float32",
                    "filters": 32,
                    "kernel_size": [
                      1,
                      1
                    ],
                    "strides": [
                      1,
                      1
                    ],
                    "padding": "same",
                    "data_format": "channels_last",
                    "dilation_rate": [
                      1,
                      1
                    ],
                    "groups": 1,
                    "activation": "linear",
                    "use_bias": false,
                    "kernel_initializer": {
                      "class_name": "GlorotUniform",
                      "config": {
                        "seed": null
                      }
                    },
                    "bias_initializer": {
                      "class_name": "Zeros",
                      "config": {}
                    },
                    "kernel_regularizer": null,
                    "bias_regularizer": null,
                    "activity_regularizer": null,
                    "kernel_constraint": null,
                    "bias_constraint": null
                  },
                  "name": "block_4_project",
                  "inbound_nodes": [
                    [
                      [
                        "block_4_depthwise_relu",
                        0,
                        0,
                        {}
                      ]
                    ]
                  ]
                },
                {
                  "class_name": "BatchNormalization",
                  "config": {
                    "name": "block_4_project_BN",
                    "trainable": true,
                    "dtype": "float32",
                    "axis": [
                      3
                    ],
                    "momentum": 0.999,
                    "epsilon": 0.001,
                    "center": true,
                    "scale": true,
                    "beta_initializer": {
                      "class_name": "Zeros",
                      "config": {}
                    },
                    "gamma_initializer": {
                      "class_name": "Ones",
                      "config": {}
                    },
                    "moving_mean_initializer": {
                      "class_name": "Zeros",
                      "config": {}
                    },
                    "moving_variance_initializer": {
                      "class_name": "Ones",
                      "config": {}
                    },
                    "beta_regularizer": null,
                    "gamma_regularizer": null,
                    "beta_constraint": null,
                    "gamma_constraint": null
                  },
                  "name": "block_4_project_BN",
                  "inbound_nodes": [
                    [
                      [
                        "block_4_project",
                        0,
                        0,
                        {}
                      ]
                    ]
                  ]
                },
                {
                  "class_name": "Add",
                  "config": {
                    "name": "block_4_add",
                    "trainable": true,
                    "dtype": "float32"
                  },
                  "name": "block_4_add",
                  "inbound_nodes": [
                    [
                      [
                        "block_3_project_BN",
                        0,
                        0,
                        {}
                      ],
                      [
                        "block_4_project_BN",
                        0,
                        0,
                        {}
                      ]
                    ]
                  ]
                }
              ],
              "input_layers": [
                [
                  "input_1",
                  0,
                  0
                ]
              ],
              "output_layers": [
                [
                  "block_4_add",
                  0,
                  0
                ]
              ]
            },
            "name": "functional_1",
            "inbound_nodes": [
              [
                [
                  "input_2",
                  0,
                  0,
                  {}
                ]
              ]
            ]
          },
          {
            "class_name": "Conv2D",
            "config": {
              "name": "conv2d",
              "trainable": true,
              "dtype": "float32",
              "filters": 64,
              "kernel_size": [
                3,
                3
              ],
              "strides": [
                2,
                2
              ],
              "padding": "valid",
              "data_format": "channels_last",
              "dilation_rate": [
                1,
                1
              ],
              "groups": 1,
              "activation": "relu",
              "use_bias": true,
              "kernel_initializer": {
                "class_name": "GlorotUniform",
                "config": {
                  "seed": null
                }
              },
              "bias_initializer": {
                "class_name": "Zeros",
                "config": {}
              },
              "kernel_regularizer": null,
              "bias_regularizer": null,
              "activity_regularizer": null,
              "kernel_constraint": null,
              "bias_constraint": null
            },
            "name": "conv2d",
            "inbound_nodes": [
              [
                [
                  "functional_1",
                  1,
                  0,
                  {}
                ]
              ]
            ]
          },
          {
            "class_name": "BatchNormalization",
            "config": {
              "name": "batch_normalization",
              "trainable": true,
              "dtype": "float32",
              "axis": [
                3
              ],
              "momentum": 0.99,
              "epsilon": 0.001,
              "center": true,
              "scale": true,
              "beta_initializer": {
                "class_name": "Zeros",
                "config": {}
              },
              "gamma_initializer": {
                "class_name": "Ones",
                "config": {}
              },
              "moving_mean_initializer": {
                "class_name": "Zeros",
                "config": {}
              },
              "moving_variance_initializer": {
                "class_name": "Ones",
                "config": {}
              },
              "beta_regularizer": null,
              "gamma_regularizer": null,
              "beta_constraint": null,
              "gamma_constraint": null
            },
            "name": "batch_normalization",
            "inbound_nodes": [
              [
                [
                  "conv2d",
                  0,
                  0,
                  {}
                ]
              ]
            ]
          },
          {
            "class_name": "Conv2D",
            "config": {
              "name": "conv2d_1",
              "trainable": true,
              "dtype": "float32",
              "filters": 64,
              "kernel_size": [
                3,
                3
              ],
              "strides": [
                2,
                2
              ],
              "padding": "valid",
              "data_format": "channels_last",
              "dilation_rate": [
                1,
                1
              ],
              "groups": 1,
              "activation": "relu",
              "use_bias": true,
              "kernel_initializer": {
                "class_name": "GlorotUniform",
                "config": {
                  "seed": null
                }
              },
              "bias_initializer": {
                "class_name": "Zeros",
                "config": {}
              },
              "kernel_regularizer": null,
              "bias_regularizer": null,
              "activity_regularizer": null,
              "kernel_constraint": null,
              "bias_constraint": null
            },
            "name": "conv2d_1",
            "inbound_nodes": [
              [
                [
                  "batch_normalization",
                  0,
                  0,
                  {}
                ]
              ]
            ]
          },
          {
            "class_name": "BatchNormalization",
            "config": {
              "name": "batch_normalization_1",
              "trainable": true,
              "dtype": "float32",
              "axis": [
                3
              ],
              "momentum": 0.99,
              "epsilon": 0.001,
              "center": true,
              "scale": true,
              "beta_initializer": {
                "class_name": "Zeros",
                "config": {}
              },
              "gamma_initializer": {
                "class_name": "Ones",
                "config": {}
              },
              "moving_mean_initializer": {
                "class_name": "Zeros",
                "config": {}
              },
              "moving_variance_initializer": {
                "class_name": "Ones",
                "config": {}
              },
              "beta_regularizer": null,
              "gamma_regularizer": null,
              "beta_constraint": null,
              "gamma_constraint": null
            },
            "name": "batch_normalization_1",
            "inbound_nodes": [
              [
                [
                  "conv2d_1",
                  0,
                  0,
                  {}
                ]
              ]
            ]
          },
          {
            "class_name": "Conv2D",
            "config": {
              "name": "conv2d_2",
              "trainable": true,
              "dtype": "float32",
              "filters": 128,
              "kernel_size": [
                3,
                3
              ],
              "strides": [
                1,
                1
              ],
              "padding": "same",
              "data_format": "channels_last",
              "dilation_rate": [
                1,
                1
              ],
              "groups": 1,
              "activation": "relu",
              "use_bias": true,
              "kernel_initializer": {
                "class_name": "GlorotUniform",
                "config": {
                  "seed": null
                }
              },
              "bias_initializer": {
                "class_name": "Zeros",
                "config": {}
              },
              "kernel_regularizer": null,
              "bias_regularizer": null,
              "activity_regularizer": null,
              "kernel_constraint": null,
              "bias_constraint": null
            },
            "name": "conv2d_2",
            "inbound_nodes": [
              [
                [
                  "batch_normalization_1",
                  0,
                  0,
                  {}
                ]
              ]
            ]
          },
          {
            "class_name": "BatchNormalization",
            "config": {
              "name": "batch_normalization_2",
              "trainable": true,
              "dtype": "float32",
              "axis": [
                3
              ],
              "momentum": 0.99,
              "epsilon": 0.001,
              "center": true,
              "scale": true,
              "beta_initializer": {
                "class_name": "Zeros",
                "config": {}
              },
              "gamma_initializer": {
                "class_name": "Ones",
                "config": {}
              },
              "moving_mean_initializer": {
                "class_name": "Zeros",
                "config": {}
              },
              "moving_variance_initializer": {
                "class_name": "Ones",
                "config": {}
              },
              "beta_regularizer": null,
              "gamma_regularizer": null,
              "beta_constraint": null,
              "gamma_constraint": null
            },
            "name": "batch_normalization_2",
            "inbound_nodes": [
              [
                [
                  "conv2d_2",
                  0,
                  0,
                  {}
                ]
              ]
            ]
          },
          {
            "class_name": "Conv2D",
            "config": {
              "name": "conv2d_3",
              "trainable": true,
              "dtype": "float32",
              "filters": 128,
              "kernel_size": [
                3,
                3
              ],
              "strides": [
                1,
                1
              ],
              "padding": "same",
              "data_format": "channels_last",
              "dilation_rate": [
                1,
                1
              ],
              "groups": 1,
              "activation": "relu",
              "use_bias": true,
              "kernel_initializer": {
                "class_name": "GlorotUniform",
                "config": {
                  "seed": null
                }
              },
              "bias_initializer": {
                "class_name": "Zeros",
                "config": {}
              },
              "kernel_regularizer": null,
              "bias_regularizer": null,
              "activity_regularizer": null,
              "kernel_constraint": null,
              "bias_constraint": null
            },
            "name": "conv2d_3",
            "inbound_nodes": [
              [
                [
                  "batch_normalization_2",
                  0,
                  0,
                  {}
                ]
              ]
            ]
          },
          {
            "class_name": "BatchNormalization",
            "config": {
              "name": "batch_normalization_3",
              "trainable": true,
              "dtype": "float32",
              "axis": [
                3
              ],
              "momentum": 0.99,
              "epsilon": 0.001,
              "center": true,
              "scale": true,
              "beta_initializer": {
                "class_name": "Zeros",
                "config": {}
              },
              "gamma_initializer": {
                "class_name": "Ones",
                "config": {}
              },
              "moving_mean_initializer": {
                "class_name": "Zeros",
                "config": {}
              },
              "moving_variance_initializer": {
                "class_name": "Ones",
                "config": {}
              },
              "beta_regularizer": null,
              "gamma_regularizer": null,
              "beta_constraint": null,
              "gamma_constraint": null
            },
            "name": "batch_normalization_3",
            "inbound_nodes": [
              [
                [
                  "conv2d_3",
                  0,
                  0,
                  {}
                ]
              ]
            ]
          },
          {
            "class_name": "Flatten",
            "config": {
              "name": "flatten",
              "trainable": true,
              "dtype": "float32",
              "data_format": "channels_last"
            },
            "name": "flatten",
            "inbound_nodes": [
              [
                [
                  "batch_normalization_3",
                  0,
                  0,
                  {}
                ]
              ]
            ]
          },
          {
            "class_name": "Dense",
            "config": {
              "name": "dense",
              "trainable": true,
              "dtype": "float32",
              "units": 64,
              "activation": "relu",
              "use_bias": true,
              "kernel_initializer": {
                "class_name": "GlorotUniform",
                "config": {
                  "seed": null
                }
              },
              "bias_initializer": {
                "class_name": "Zeros",
                "config": {}
              },
              "kernel_regularizer": null,
              "bias_regularizer": null,
              "activity_regularizer": null,
              "kernel_constraint": null,
              "bias_constraint": null
            },
            "name": "dense",
            "inbound_nodes": [
              [
                [
                  "flatten",
                  0,
                  0,
                  {}
                ]
              ]
            ]
          },
          {
            "class_name": "Dense",
            "config": {
              "name": "dense_1",
              "trainable": true,
              "dtype": "float32",
              "units": 8,
              "activation": "relu",
              "use_bias": true,
              "kernel_initializer": {
                "class_name": "GlorotUniform",
                "config": {
                  "seed": null
                }
              },
              "bias_initializer": {
                "class_name": "Zeros",
                "config": {}
              },
              "kernel_regularizer": null,
              "bias_regularizer": null,
              "activity_regularizer": null,
              "kernel_constraint": null,
              "bias_constraint": null
            },
            "name": "dense_1",
            "inbound_nodes": [
              [
                [
                  "dense",
                  0,
                  0,
                  {}
                ]
              ]
            ]
          }
        ],
        "input_layers": [
          [
            "input_2",
            0,
            0
          ]
        ],
        "output_layers": [
          [
            "dense_1",
            0,
            0
          ]
        ]
      }
    },
    "training_config": {
      "loss": "mean_absolute_error",
      "metrics": "mae",
      "weighted_metrics": null,
      "loss_weights": null,
      "optimizer_config": {
        "class_name": "Adam",
        "config": {
          "name": "Adam",
          "learning_rate": 9.999999747378752e-05,
          "decay": 0.0,
          "beta_1": 0.8999999761581421,
          "beta_2": 0.9990000128746033,
          "epsilon": 1e-07,
          "amsgrad": false
        }
      }
    }
  },
  "weightsManifest": [
    {
      "paths": [
        "landmarkWeights.bin"
      ],
      "weights": [
        {
          "name": "batch_normalization/gamma",
          "shape": [
            64
          ],
          "dtype": "float32"
        },
        {
          "name": "batch_normalization/beta",
          "shape": [
            64
          ],
          "dtype": "float32"
        },
        {
          "name": "batch_normalization/moving_mean",
          "shape": [
            64
          ],
          "dtype": "float32"
        },
        {
          "name": "batch_normalization/moving_variance",
          "shape": [
            64
          ],
          "dtype": "float32"
        },
        {
          "name": "batch_normalization_1/gamma",
          "shape": [
            64
          ],
          "dtype": "float32"
        },
        {
          "name": "batch_normalization_1/beta",
          "shape": [
            64
          ],
          "dtype": "float32"
        },
        {
          "name": "batch_normalization_1/moving_mean",
          "shape": [
            64
          ],
          "dtype": "float32"
        },
        {
          "name": "batch_normalization_1/moving_variance",
          "shape": [
            64
          ],
          "dtype": "float32"
        },
        {
          "name": "batch_normalization_2/gamma",
          "shape": [
            128
          ],
          "dtype": "float32"
        },
        {
          "name": "batch_normalization_2/beta",
          "shape": [
            128
          ],
          "dtype": "float32"
        },
        {
          "name": "batch_normalization_2/moving_mean",
          "shape": [
            128
          ],
          "dtype": "float32"
        },
        {
          "name": "batch_normalization_2/moving_variance",
          "shape": [
            128
          ],
          "dtype": "float32"
        },
        {
          "name": "batch_normalization_3/gamma",
          "shape": [
            128
          ],
          "dtype": "float32"
        },
        {
          "name": "batch_normalization_3/beta",
          "shape": [
            128
          ],
          "dtype": "float32"
        },
        {
          "name": "batch_normalization_3/moving_mean",
          "shape": [
            128
          ],
          "dtype": "float32"
        },
        {
          "name": "batch_normalization_3/moving_variance",
          "shape": [
            128
          ],
          "dtype": "float32"
        },
        {
          "name": "conv2d/kernel",
          "shape": [
            3,
            3,
            32,
            64
          ],
          "dtype": "float32"
        },
        {
          "name": "conv2d/bias",
          "shape": [
            64
          ],
          "dtype": "float32"
        },
        {
          "name": "conv2d_1/kernel",
          "shape": [
            3,
            3,
            64,
            64
          ],
          "dtype": "float32"
        },
        {
          "name": "conv2d_1/bias",
          "shape": [
            64
          ],
          "dtype": "float32"
        },
        {
          "name": "conv2d_2/kernel",
          "shape": [
            3,
            3,
            64,
            128
          ],
          "dtype": "float32"
        },
        {
          "name": "conv2d_2/bias",
          "shape": [
            128
          ],
          "dtype": "float32"
        },
        {
          "name": "conv2d_3/kernel",
          "shape": [
            3,
            3,
            128,
            128
          ],
          "dtype": "float32"
        },
        {
          "name": "conv2d_3/bias",
          "shape": [
            128
          ],
          "dtype": "float32"
        },
        {
          "name": "dense/kernel",
          "shape": [
            2048,
            64
          ],
          "dtype": "float32"
        },
        {
          "name": "dense/bias",
          "shape": [
            64
          ],
          "dtype": "float32"
        },
        {
          "name": "dense_1/kernel",
          "shape": [
            64,
            8
          ],
          "dtype": "float32"
        },
        {
          "name": "dense_1/bias",
          "shape": [
            8
          ],
          "dtype": "float32"
        },
        {
          "name": "block_3_project/kernel",
          "shape": [
            1,
            1,
            144,
            32
          ],
          "dtype": "float32"
        },
        {
          "name": "block_3_project_BN/gamma",
          "shape": [
            32
          ],
          "dtype": "float32"
        },
        {
          "name": "block_3_project_BN/beta",
          "shape": [
            32
          ],
          "dtype": "float32"
        },
        {
          "name": "block_4_expand/kernel",
          "shape": [
            1,
            1,
            32,
            192
          ],
          "dtype": "float32"
        },
        {
          "name": "block_4_expand_BN/gamma",
          "shape": [
            192
          ],
          "dtype": "float32"
        },
        {
          "name": "block_4_expand_BN/beta",
          "shape": [
            192
          ],
          "dtype": "float32"
        },
        {
          "name": "block_4_depthwise/depthwise_kernel",
          "shape": [
            3,
            3,
            192,
            1
          ],
          "dtype": "float32"
        },
        {
          "name": "block_4_depthwise_BN/gamma",
          "shape": [
            192
          ],
          "dtype": "float32"
        },
        {
          "name": "block_4_depthwise_BN/beta",
          "shape": [
            192
          ],
          "dtype": "float32"
        },
        {
          "name": "block_4_project/kernel",
          "shape": [
            1,
            1,
            192,
            32
          ],
          "dtype": "float32"
        },
        {
          "name": "block_4_project_BN/gamma",
          "shape": [
            32
          ],
          "dtype": "float32"
        },
        {
          "name": "block_4_project_BN/beta",
          "shape": [
            32
          ],
          "dtype": "float32"
        },
        {
          "name": "Conv1/kernel",
          "shape": [
            3,
            3,
            3,
            32
          ],
          "dtype": "float32"
        },
        {
          "name": "bn_Conv1/gamma",
          "shape": [
            32
          ],
          "dtype": "float32"
        },
        {
          "name": "bn_Conv1/beta",
          "shape": [
            32
          ],
          "dtype": "float32"
        },
        {
          "name": "bn_Conv1/moving_mean",
          "shape": [
            32
          ],
          "dtype": "float32"
        },
        {
          "name": "bn_Conv1/moving_variance",
          "shape": [
            32
          ],
          "dtype": "float32"
        },
        {
          "name": "expanded_conv_depthwise/depthwise_kernel",
          "shape": [
            3,
            3,
            32,
            1
          ],
          "dtype": "float32"
        },
        {
          "name": "expanded_conv_depthwise_BN/gamma",
          "shape": [
            32
          ],
          "dtype": "float32"
        },
        {
          "name": "expanded_conv_depthwise_BN/beta",
          "shape": [
            32
          ],
          "dtype": "float32"
        },
        {
          "name": "expanded_conv_depthwise_BN/moving_mean",
          "shape": [
            32
          ],
          "dtype": "float32"
        },
        {
          "name": "expanded_conv_depthwise_BN/moving_variance",
          "shape": [
            32
          ],
          "dtype": "float32"
        },
        {
          "name": "expanded_conv_project/kernel",
          "shape": [
            1,
            1,
            32,
            16
          ],
          "dtype": "float32"
        },
        {
          "name": "expanded_conv_project_BN/gamma",
          "shape": [
            16
          ],
          "dtype": "float32"
        },
        {
          "name": "expanded_conv_project_BN/beta",
          "shape": [
            16
          ],
          "dtype": "float32"
        },
        {
          "name": "expanded_conv_project_BN/moving_mean",
          "shape": [
            16
          ],
          "dtype": "float32"
        },
        {
          "name": "expanded_conv_project_BN/moving_variance",
          "shape": [
            16
          ],
          "dtype": "float32"
        },
        {
          "name": "block_1_expand/kernel",
          "shape": [
            1,
            1,
            16,
            96
          ],
          "dtype": "float32"
        },
        {
          "name": "block_1_expand_BN/gamma",
          "shape": [
            96
          ],
          "dtype": "float32"
        },
        {
          "name": "block_1_expand_BN/beta",
          "shape": [
            96
          ],
          "dtype": "float32"
        },
        {
          "name": "block_1_expand_BN/moving_mean",
          "shape": [
            96
          ],
          "dtype": "float32"
        },
        {
          "name": "block_1_expand_BN/moving_variance",
          "shape": [
            96
          ],
          "dtype": "float32"
        },
        {
          "name": "block_1_depthwise/depthwise_kernel",
          "shape": [
            3,
            3,
            96,
            1
          ],
          "dtype": "float32"
        },
        {
          "name": "block_1_depthwise_BN/gamma",
          "shape": [
            96
          ],
          "dtype": "float32"
        },
        {
          "name": "block_1_depthwise_BN/beta",
          "shape": [
            96
          ],
          "dtype": "float32"
        },
        {
          "name": "block_1_depthwise_BN/moving_mean",
          "shape": [
            96
          ],
          "dtype": "float32"
        },
        {
          "name": "block_1_depthwise_BN/moving_variance",
          "shape": [
            96
          ],
          "dtype": "float32"
        },
        {
          "name": "block_1_project/kernel",
          "shape": [
            1,
            1,
            96,
            24
          ],
          "dtype": "float32"
        },
        {
          "name": "block_1_project_BN/gamma",
          "shape": [
            24
          ],
          "dtype": "float32"
        },
        {
          "name": "block_1_project_BN/beta",
          "shape": [
            24
          ],
          "dtype": "float32"
        },
        {
          "name": "block_1_project_BN/moving_mean",
          "shape": [
            24
          ],
          "dtype": "float32"
        },
        {
          "name": "block_1_project_BN/moving_variance",
          "shape": [
            24
          ],
          "dtype": "float32"
        },
        {
          "name": "block_2_expand/kernel",
          "shape": [
            1,
            1,
            24,
            144
          ],
          "dtype": "float32"
        },
        {
          "name": "block_2_expand_BN/gamma",
          "shape": [
            144
          ],
          "dtype": "float32"
        },
        {
          "name": "block_2_expand_BN/beta",
          "shape": [
            144
          ],
          "dtype": "float32"
        },
        {
          "name": "block_2_expand_BN/moving_mean",
          "shape": [
            144
          ],
          "dtype": "float32"
        },
        {
          "name": "block_2_expand_BN/moving_variance",
          "shape": [
            144
          ],
          "dtype": "float32"
        },
        {
          "name": "block_2_depthwise/depthwise_kernel",
          "shape": [
            3,
            3,
            144,
            1
          ],
          "dtype": "float32"
        },
        {
          "name": "block_2_depthwise_BN/gamma",
          "shape": [
            144
          ],
          "dtype": "float32"
        },
        {
          "name": "block_2_depthwise_BN/beta",
          "shape": [
            144
          ],
          "dtype": "float32"
        },
        {
          "name": "block_2_depthwise_BN/moving_mean",
          "shape": [
            144
          ],
          "dtype": "float32"
        },
        {
          "name": "block_2_depthwise_BN/moving_variance",
          "shape": [
            144
          ],
          "dtype": "float32"
        },
        {
          "name": "block_2_project/kernel",
          "shape": [
            1,
            1,
            144,
            24
          ],
          "dtype": "float32"
        },
        {
          "name": "block_2_project_BN/gamma",
          "shape": [
            24
          ],
          "dtype": "float32"
        },
        {
          "name": "block_2_project_BN/beta",
          "shape": [
            24
          ],
          "dtype": "float32"
        },
        {
          "name": "block_2_project_BN/moving_mean",
          "shape": [
            24
          ],
          "dtype": "float32"
        },
        {
          "name": "block_2_project_BN/moving_variance",
          "shape": [
            24
          ],
          "dtype": "float32"
        },
        {
          "name": "block_3_expand/kernel",
          "shape": [
            1,
            1,
            24,
            144
          ],
          "dtype": "float32"
        },
        {
          "name": "block_3_expand_BN/gamma",
          "shape": [
            144
          ],
          "dtype": "float32"
        },
        {
          "name": "block_3_expand_BN/beta",
          "shape": [
            144
          ],
          "dtype": "float32"
        },
        {
          "name": "block_3_expand_BN/moving_mean",
          "shape": [
            144
          ],
          "dtype": "float32"
        },
        {
          "name": "block_3_expand_BN/moving_variance",
          "shape": [
            144
          ],
          "dtype": "float32"
        },
        {
          "name": "block_3_depthwise/depthwise_kernel",
          "shape": [
            3,
            3,
            144,
            1
          ],
          "dtype": "float32"
        },
        {
          "name": "block_3_depthwise_BN/gamma",
          "shape": [
            144
          ],
          "dtype": "float32"
        },
        {
          "name": "block_3_depthwise_BN/beta",
          "shape": [
            144
          ],
          "dtype": "float32"
        },
        {
          "name": "block_3_depthwise_BN/moving_mean",
          "shape": [
            144
          ],
          "dtype": "float32"
        },
        {
          "name": "block_3_depthwise_BN/moving_variance",
          "shape": [
            144
          ],
          "dtype": "float32"
        },
        {
          "name": "block_3_project_BN/moving_mean",
          "shape": [
            32
          ],
          "dtype": "float32"
        },
        {
          "name": "block_3_project_BN/moving_variance",
          "shape": [
            32
          ],
          "dtype": "float32"
        },
        {
          "name": "block_4_expand_BN/moving_mean",
          "shape": [
            192
          ],
          "dtype": "float32"
        },
        {
          "name": "block_4_expand_BN/moving_variance",
          "shape": [
            192
          ],
          "dtype": "float32"
        },
        {
          "name": "block_4_depthwise_BN/moving_mean",
          "shape": [
            192
          ],
          "dtype": "float32"
        },
        {
          "name": "block_4_depthwise_BN/moving_variance",
          "shape": [
            192
          ],
          "dtype": "float32"
        },
        {
          "name": "block_4_project_BN/moving_mean",
          "shape": [
            32
          ],
          "dtype": "float32"
        },
        {
          "name": "block_4_project_BN/moving_variance",
          "shape": [
            32
          ],
          "dtype": "float32"
        }
      ]
    }
  ]
}