{
  "format": "layers-model",
  "generatedBy": "keras v2.4.0",
  "convertedBy": "TensorFlow.js Converter v2.3.0",
  "modelTopology": {
    "keras_version": "2.4.0",
    "backend": "tensorflow",
    "model_config": {
      "class_name": "Model",
      "config": {
        "name": "functional_91",
        "layers": [
          {
            "class_name": "InputLayer",
            "config": {
              "batch_input_shape": [
                null,
                224,
                224,
                3
              ],
              "dtype": "float32",
              "sparse": false,
              "ragged": false,
              "name": "input_46"
            },
            "name": "input_46",
            "inbound_nodes": []
          },
          {
            "class_name": "Model",
            "config": {
              "name": "functional_89",
              "layers": [
                {
                  "class_name": "InputLayer",
                  "config": {
                    "batch_input_shape": [
                      null,
                      224,
                      224,
                      3
                    ],
                    "dtype": "float32",
                    "sparse": false,
                    "ragged": false,
                    "name": "input_45"
                  },
                  "name": "input_45",
                  "inbound_nodes": []
                },
                {
                  "class_name": "ZeroPadding2D",
                  "config": {
                    "name": "Conv1_pad",
                    "trainable": false,
                    "dtype": "float32",
                    "padding": [
                      [
                        0,
                        1
                      ],
                      [
                        0,
                        1
                      ]
                    ],
                    "data_format": "channels_last"
                  },
                  "name": "Conv1_pad",
                  "inbound_nodes": [
                    [
                      [
                        "input_45",
                        0,
                        0,
                        {}
                      ]
                    ]
                  ]
                },
                {
                  "class_name": "Conv2D",
                  "config": {
                    "name": "Conv1",
                    "trainable": false,
                    "dtype": "float32",
                    "filters": 32,
                    "kernel_size": [
                      3,
                      3
                    ],
                    "strides": [
                      2,
                      2
                    ],
                    "padding": "valid",
                    "data_format": "channels_last",
                    "dilation_rate": [
                      1,
                      1
                    ],
                    "groups": 1,
                    "activation": "linear",
                    "use_bias": false,
                    "kernel_initializer": {
                      "class_name": "GlorotUniform",
                      "config": {
                        "seed": null
                      }
                    },
                    "bias_initializer": {
                      "class_name": "Zeros",
                      "config": {}
                    },
                    "kernel_regularizer": null,
                    "bias_regularizer": null,
                    "activity_regularizer": null,
                    "kernel_constraint": null,
                    "bias_constraint": null
                  },
                  "name": "Conv1",
                  "inbound_nodes": [
                    [
                      [
                        "Conv1_pad",
                        0,
                        0,
                        {}
                      ]
                    ]
                  ]
                },
                {
                  "class_name": "BatchNormalization",
                  "config": {
                    "name": "bn_Conv1",
                    "trainable": false,
                    "dtype": "float32",
                    "axis": [
                      3
                    ],
                    "momentum": 0.999,
                    "epsilon": 0.001,
                    "center": true,
                    "scale": true,
                    "beta_initializer": {
                      "class_name": "Zeros",
                      "config": {}
                    },
                    "gamma_initializer": {
                      "class_name": "Ones",
                      "config": {}
                    },
                    "moving_mean_initializer": {
                      "class_name": "Zeros",
                      "config": {}
                    },
                    "moving_variance_initializer": {
                      "class_name": "Ones",
                      "config": {}
                    },
                    "beta_regularizer": null,
                    "gamma_regularizer": null,
                    "beta_constraint": null,
                    "gamma_constraint": null
                  },
                  "name": "bn_Conv1",
                  "inbound_nodes": [
                    [
                      [
                        "Conv1",
                        0,
                        0,
                        {}
                      ]
                    ]
                  ]
                },
                {
                  "class_name": "ReLU",
                  "config": {
                    "name": "Conv1_relu",
                    "trainable": false,
                    "dtype": "float32",
                    "max_value": 6.0,
                    "negative_slope": 0.0,
                    "threshold": 0.0
                  },
                  "name": "Conv1_relu",
                  "inbound_nodes": [
                    [
                      [
                        "bn_Conv1",
                        0,
                        0,
                        {}
                      ]
                    ]
                  ]
                },
                {
                  "class_name": "DepthwiseConv2D",
                  "config": {
                    "name": "expanded_conv_depthwise",
                    "trainable": false,
                    "dtype": "float32",
                    "kernel_size": [
                      3,
                      3
                    ],
                    "strides": [
                      1,
                      1
                    ],
                    "padding": "same",
                    "data_format": "channels_last",
                    "dilation_rate": [
                      1,
                      1
                    ],
                    "groups": 1,
                    "activation": "linear",
                    "use_bias": false,
                    "bias_initializer": {
                      "class_name": "Zeros",
                      "config": {}
                    },
                    "bias_regularizer": null,
                    "activity_regularizer": null,
                    "bias_constraint": null,
                    "depth_multiplier": 1,
                    "depthwise_initializer": {
                      "class_name": "GlorotUniform",
                      "config": {
                        "seed": null
                      }
                    },
                    "depthwise_regularizer": null,
                    "depthwise_constraint": null
                  },
                  "name": "expanded_conv_depthwise",
                  "inbound_nodes": [
                    [
                      [
                        "Conv1_relu",
                        0,
                        0,
                        {}
                      ]
                    ]
                  ]
                },
                {
                  "class_name": "BatchNormalization",
                  "config": {
                    "name": "expanded_conv_depthwise_BN",
                    "trainable": false,
                    "dtype": "float32",
                    "axis": [
                      3
                    ],
                    "momentum": 0.999,
                    "epsilon": 0.001,
                    "center": true,
                    "scale": true,
                    "beta_initializer": {
                      "class_name": "Zeros",
                      "config": {}
                    },
                    "gamma_initializer": {
                      "class_name": "Ones",
                      "config": {}
                    },
                    "moving_mean_initializer": {
                      "class_name": "Zeros",
                      "config": {}
                    },
                    "moving_variance_initializer": {
                      "class_name": "Ones",
                      "config": {}
                    },
                    "beta_regularizer": null,
                    "gamma_regularizer": null,
                    "beta_constraint": null,
                    "gamma_constraint": null
                  },
                  "name": "expanded_conv_depthwise_BN",
                  "inbound_nodes": [
                    [
                      [
                        "expanded_conv_depthwise",
                        0,
                        0,
                        {}
                      ]
                    ]
                  ]
                },
                {
                  "class_name": "ReLU",
                  "config": {
                    "name": "expanded_conv_depthwise_relu",
                    "trainable": false,
                    "dtype": "float32",
                    "max_value": 6.0,
                    "negative_slope": 0.0,
                    "threshold": 0.0
                  },
                  "name": "expanded_conv_depthwise_relu",
                  "inbound_nodes": [
                    [
                      [
                        "expanded_conv_depthwise_BN",
                        0,
                        0,
                        {}
                      ]
                    ]
                  ]
                },
                {
                  "class_name": "Conv2D",
                  "config": {
                    "name": "expanded_conv_project",
                    "trainable": false,
                    "dtype": "float32",
                    "filters": 16,
                    "kernel_size": [
                      1,
                      1
                    ],
                    "strides": [
                      1,
                      1
                    ],
                    "padding": "same",
                    "data_format": "channels_last",
                    "dilation_rate": [
                      1,
                      1
                    ],
                    "groups": 1,
                    "activation": "linear",
                    "use_bias": false,
                    "kernel_initializer": {
                      "class_name": "GlorotUniform",
                      "config": {
                        "seed": null
                      }
                    },
                    "bias_initializer": {
                      "class_name": "Zeros",
                      "config": {}
                    },
                    "kernel_regularizer": null,
                    "bias_regularizer": null,
                    "activity_regularizer": null,
                    "kernel_constraint": null,
                    "bias_constraint": null
                  },
                  "name": "expanded_conv_project",
                  "inbound_nodes": [
                    [
                      [
                        "expanded_conv_depthwise_relu",
                        0,
                        0,
                        {}
                      ]
                    ]
                  ]
                },
                {
                  "class_name": "BatchNormalization",
                  "config": {
                    "name": "expanded_conv_project_BN",
                    "trainable": false,
                    "dtype": "float32",
                    "axis": [
                      3
                    ],
                    "momentum": 0.999,
                    "epsilon": 0.001,
                    "center": true,
                    "scale": true,
                    "beta_initializer": {
                      "class_name": "Zeros",
                      "config": {}
                    },
                    "gamma_initializer": {
                      "class_name": "Ones",
                      "config": {}
                    },
                    "moving_mean_initializer": {
                      "class_name": "Zeros",
                      "config": {}
                    },
                    "moving_variance_initializer": {
                      "class_name": "Ones",
                      "config": {}
                    },
                    "beta_regularizer": null,
                    "gamma_regularizer": null,
                    "beta_constraint": null,
                    "gamma_constraint": null
                  },
                  "name": "expanded_conv_project_BN",
                  "inbound_nodes": [
                    [
                      [
                        "expanded_conv_project",
                        0,
                        0,
                        {}
                      ]
                    ]
                  ]
                },
                {
                  "class_name": "Conv2D",
                  "config": {
                    "name": "block_1_expand",
                    "trainable": false,
                    "dtype": "float32",
                    "filters": 96,
                    "kernel_size": [
                      1,
                      1
                    ],
                    "strides": [
                      1,
                      1
                    ],
                    "padding": "same",
                    "data_format": "channels_last",
                    "dilation_rate": [
                      1,
                      1
                    ],
                    "groups": 1,
                    "activation": "linear",
                    "use_bias": false,
                    "kernel_initializer": {
                      "class_name": "GlorotUniform",
                      "config": {
                        "seed": null
                      }
                    },
                    "bias_initializer": {
                      "class_name": "Zeros",
                      "config": {}
                    },
                    "kernel_regularizer": null,
                    "bias_regularizer": null,
                    "activity_regularizer": null,
                    "kernel_constraint": null,
                    "bias_constraint": null
                  },
                  "name": "block_1_expand",
                  "inbound_nodes": [
                    [
                      [
                        "expanded_conv_project_BN",
                        0,
                        0,
                        {}
                      ]
                    ]
                  ]
                },
                {
                  "class_name": "BatchNormalization",
                  "config": {
                    "name": "block_1_expand_BN",
                    "trainable": false,
                    "dtype": "float32",
                    "axis": [
                      3
                    ],
                    "momentum": 0.999,
                    "epsilon": 0.001,
                    "center": true,
                    "scale": true,
                    "beta_initializer": {
                      "class_name": "Zeros",
                      "config": {}
                    },
                    "gamma_initializer": {
                      "class_name": "Ones",
                      "config": {}
                    },
                    "moving_mean_initializer": {
                      "class_name": "Zeros",
                      "config": {}
                    },
                    "moving_variance_initializer": {
                      "class_name": "Ones",
                      "config": {}
                    },
                    "beta_regularizer": null,
                    "gamma_regularizer": null,
                    "beta_constraint": null,
                    "gamma_constraint": null
                  },
                  "name": "block_1_expand_BN",
                  "inbound_nodes": [
                    [
                      [
                        "block_1_expand",
                        0,
                        0,
                        {}
                      ]
                    ]
                  ]
                },
                {
                  "class_name": "ReLU",
                  "config": {
                    "name": "block_1_expand_relu",
                    "trainable": false,
                    "dtype": "float32",
                    "max_value": 6.0,
                    "negative_slope": 0.0,
                    "threshold": 0.0
                  },
                  "name": "block_1_expand_relu",
                  "inbound_nodes": [
                    [
                      [
                        "block_1_expand_BN",
                        0,
                        0,
                        {}
                      ]
                    ]
                  ]
                },
                {
                  "class_name": "ZeroPadding2D",
                  "config": {
                    "name": "block_1_pad",
                    "trainable": false,
                    "dtype": "float32",
                    "padding": [
                      [
                        0,
                        1
                      ],
                      [
                        0,
                        1
                      ]
                    ],
                    "data_format": "channels_last"
                  },
                  "name": "block_1_pad",
                  "inbound_nodes": [
                    [
                      [
                        "block_1_expand_relu",
                        0,
                        0,
                        {}
                      ]
                    ]
                  ]
                },
                {
                  "class_name": "DepthwiseConv2D",
                  "config": {
                    "name": "block_1_depthwise",
                    "trainable": false,
                    "dtype": "float32",
                    "kernel_size": [
                      3,
                      3
                    ],
                    "strides": [
                      2,
                      2
                    ],
                    "padding": "valid",
                    "data_format": "channels_last",
                    "dilation_rate": [
                      1,
                      1
                    ],
                    "groups": 1,
                    "activation": "linear",
                    "use_bias": false,
                    "bias_initializer": {
                      "class_name": "Zeros",
                      "config": {}
                    },
                    "bias_regularizer": null,
                    "activity_regularizer": null,
                    "bias_constraint": null,
                    "depth_multiplier": 1,
                    "depthwise_initializer": {
                      "class_name": "GlorotUniform",
                      "config": {
                        "seed": null
                      }
                    },
                    "depthwise_regularizer": null,
                    "depthwise_constraint": null
                  },
                  "name": "block_1_depthwise",
                  "inbound_nodes": [
                    [
                      [
                        "block_1_pad",
                        0,
                        0,
                        {}
                      ]
                    ]
                  ]
                },
                {
                  "class_name": "BatchNormalization",
                  "config": {
                    "name": "block_1_depthwise_BN",
                    "trainable": false,
                    "dtype": "float32",
                    "axis": [
                      3
                    ],
                    "momentum": 0.999,
                    "epsilon": 0.001,
                    "center": true,
                    "scale": true,
                    "beta_initializer": {
                      "class_name": "Zeros",
                      "config": {}
                    },
                    "gamma_initializer": {
                      "class_name": "Ones",
                      "config": {}
                    },
                    "moving_mean_initializer": {
                      "class_name": "Zeros",
                      "config": {}
                    },
                    "moving_variance_initializer": {
                      "class_name": "Ones",
                      "config": {}
                    },
                    "beta_regularizer": null,
                    "gamma_regularizer": null,
                    "beta_constraint": null,
                    "gamma_constraint": null
                  },
                  "name": "block_1_depthwise_BN",
                  "inbound_nodes": [
                    [
                      [
                        "block_1_depthwise",
                        0,
                        0,
                        {}
                      ]
                    ]
                  ]
                },
                {
                  "class_name": "ReLU",
                  "config": {
                    "name": "block_1_depthwise_relu",
                    "trainable": false,
                    "dtype": "float32",
                    "max_value": 6.0,
                    "negative_slope": 0.0,
                    "threshold": 0.0
                  },
                  "name": "block_1_depthwise_relu",
                  "inbound_nodes": [
                    [
                      [
                        "block_1_depthwise_BN",
                        0,
                        0,
                        {}
                      ]
                    ]
                  ]
                },
                {
                  "class_name": "Conv2D",
                  "config": {
                    "name": "block_1_project",
                    "trainable": false,
                    "dtype": "float32",
                    "filters": 24,
                    "kernel_size": [
                      1,
                      1
                    ],
                    "strides": [
                      1,
                      1
                    ],
                    "padding": "same",
                    "data_format": "channels_last",
                    "dilation_rate": [
                      1,
                      1
                    ],
                    "groups": 1,
                    "activation": "linear",
                    "use_bias": false,
                    "kernel_initializer": {
                      "class_name": "GlorotUniform",
                      "config": {
                        "seed": null
                      }
                    },
                    "bias_initializer": {
                      "class_name": "Zeros",
                      "config": {}
                    },
                    "kernel_regularizer": null,
                    "bias_regularizer": null,
                    "activity_regularizer": null,
                    "kernel_constraint": null,
                    "bias_constraint": null
                  },
                  "name": "block_1_project",
                  "inbound_nodes": [
                    [
                      [
                        "block_1_depthwise_relu",
                        0,
                        0,
                        {}
                      ]
                    ]
                  ]
                },
                {
                  "class_name": "BatchNormalization",
                  "config": {
                    "name": "block_1_project_BN",
                    "trainable": false,
                    "dtype": "float32",
                    "axis": [
                      3
                    ],
                    "momentum": 0.999,
                    "epsilon": 0.001,
                    "center": true,
                    "scale": true,
                    "beta_initializer": {
                      "class_name": "Zeros",
                      "config": {}
                    },
                    "gamma_initializer": {
                      "class_name": "Ones",
                      "config": {}
                    },
                    "moving_mean_initializer": {
                      "class_name": "Zeros",
                      "config": {}
                    },
                    "moving_variance_initializer": {
                      "class_name": "Ones",
                      "config": {}
                    },
                    "beta_regularizer": null,
                    "gamma_regularizer": null,
                    "beta_constraint": null,
                    "gamma_constraint": null
                  },
                  "name": "block_1_project_BN",
                  "inbound_nodes": [
                    [
                      [
                        "block_1_project",
                        0,
                        0,
                        {}
                      ]
                    ]
                  ]
                },
                {
                  "class_name": "Conv2D",
                  "config": {
                    "name": "block_2_expand",
                    "trainable": false,
                    "dtype": "float32",
                    "filters": 144,
                    "kernel_size": [
                      1,
                      1
                    ],
                    "strides": [
                      1,
                      1
                    ],
                    "padding": "same",
                    "data_format": "channels_last",
                    "dilation_rate": [
                      1,
                      1
                    ],
                    "groups": 1,
                    "activation": "linear",
                    "use_bias": false,
                    "kernel_initializer": {
                      "class_name": "GlorotUniform",
                      "config": {
                        "seed": null
                      }
                    },
                    "bias_initializer": {
                      "class_name": "Zeros",
                      "config": {}
                    },
                    "kernel_regularizer": null,
                    "bias_regularizer": null,
                    "activity_regularizer": null,
                    "kernel_constraint": null,
                    "bias_constraint": null
                  },
                  "name": "block_2_expand",
                  "inbound_nodes": [
                    [
                      [
                        "block_1_project_BN",
                        0,
                        0,
                        {}
                      ]
                    ]
                  ]
                },
                {
                  "class_name": "BatchNormalization",
                  "config": {
                    "name": "block_2_expand_BN",
                    "trainable": false,
                    "dtype": "float32",
                    "axis": [
                      3
                    ],
                    "momentum": 0.999,
                    "epsilon": 0.001,
                    "center": true,
                    "scale": true,
                    "beta_initializer": {
                      "class_name": "Zeros",
                      "config": {}
                    },
                    "gamma_initializer": {
                      "class_name": "Ones",
                      "config": {}
                    },
                    "moving_mean_initializer": {
                      "class_name": "Zeros",
                      "config": {}
                    },
                    "moving_variance_initializer": {
                      "class_name": "Ones",
                      "config": {}
                    },
                    "beta_regularizer": null,
                    "gamma_regularizer": null,
                    "beta_constraint": null,
                    "gamma_constraint": null
                  },
                  "name": "block_2_expand_BN",
                  "inbound_nodes": [
                    [
                      [
                        "block_2_expand",
                        0,
                        0,
                        {}
                      ]
                    ]
                  ]
                },
                {
                  "class_name": "ReLU",
                  "config": {
                    "name": "block_2_expand_relu",
                    "trainable": false,
                    "dtype": "float32",
                    "max_value": 6.0,
                    "negative_slope": 0.0,
                    "threshold": 0.0
                  },
                  "name": "block_2_expand_relu",
                  "inbound_nodes": [
                    [
                      [
                        "block_2_expand_BN",
                        0,
                        0,
                        {}
                      ]
                    ]
                  ]
                },
                {
                  "class_name": "DepthwiseConv2D",
                  "config": {
                    "name": "block_2_depthwise",
                    "trainable": false,
                    "dtype": "float32",
                    "kernel_size": [
                      3,
                      3
                    ],
                    "strides": [
                      1,
                      1
                    ],
                    "padding": "same",
                    "data_format": "channels_last",
                    "dilation_rate": [
                      1,
                      1
                    ],
                    "groups": 1,
                    "activation": "linear",
                    "use_bias": false,
                    "bias_initializer": {
                      "class_name": "Zeros",
                      "config": {}
                    },
                    "bias_regularizer": null,
                    "activity_regularizer": null,
                    "bias_constraint": null,
                    "depth_multiplier": 1,
                    "depthwise_initializer": {
                      "class_name": "GlorotUniform",
                      "config": {
                        "seed": null
                      }
                    },
                    "depthwise_regularizer": null,
                    "depthwise_constraint": null
                  },
                  "name": "block_2_depthwise",
                  "inbound_nodes": [
                    [
                      [
                        "block_2_expand_relu",
                        0,
                        0,
                        {}
                      ]
                    ]
                  ]
                },
                {
                  "class_name": "BatchNormalization",
                  "config": {
                    "name": "block_2_depthwise_BN",
                    "trainable": false,
                    "dtype": "float32",
                    "axis": [
                      3
                    ],
                    "momentum": 0.999,
                    "epsilon": 0.001,
                    "center": true,
                    "scale": true,
                    "beta_initializer": {
                      "class_name": "Zeros",
                      "config": {}
                    },
                    "gamma_initializer": {
                      "class_name": "Ones",
                      "config": {}
                    },
                    "moving_mean_initializer": {
                      "class_name": "Zeros",
                      "config": {}
                    },
                    "moving_variance_initializer": {
                      "class_name": "Ones",
                      "config": {}
                    },
                    "beta_regularizer": null,
                    "gamma_regularizer": null,
                    "beta_constraint": null,
                    "gamma_constraint": null
                  },
                  "name": "block_2_depthwise_BN",
                  "inbound_nodes": [
                    [
                      [
                        "block_2_depthwise",
                        0,
                        0,
                        {}
                      ]
                    ]
                  ]
                },
                {
                  "class_name": "ReLU",
                  "config": {
                    "name": "block_2_depthwise_relu",
                    "trainable": false,
                    "dtype": "float32",
                    "max_value": 6.0,
                    "negative_slope": 0.0,
                    "threshold": 0.0
                  },
                  "name": "block_2_depthwise_relu",
                  "inbound_nodes": [
                    [
                      [
                        "block_2_depthwise_BN",
                        0,
                        0,
                        {}
                      ]
                    ]
                  ]
                },
                {
                  "class_name": "Conv2D",
                  "config": {
                    "name": "block_2_project",
                    "trainable": false,
                    "dtype": "float32",
                    "filters": 24,
                    "kernel_size": [
                      1,
                      1
                    ],
                    "strides": [
                      1,
                      1
                    ],
                    "padding": "same",
                    "data_format": "channels_last",
                    "dilation_rate": [
                      1,
                      1
                    ],
                    "groups": 1,
                    "activation": "linear",
                    "use_bias": false,
                    "kernel_initializer": {
                      "class_name": "GlorotUniform",
                      "config": {
                        "seed": null
                      }
                    },
                    "bias_initializer": {
                      "class_name": "Zeros",
                      "config": {}
                    },
                    "kernel_regularizer": null,
                    "bias_regularizer": null,
                    "activity_regularizer": null,
                    "kernel_constraint": null,
                    "bias_constraint": null
                  },
                  "name": "block_2_project",
                  "inbound_nodes": [
                    [
                      [
                        "block_2_depthwise_relu",
                        0,
                        0,
                        {}
                      ]
                    ]
                  ]
                },
                {
                  "class_name": "BatchNormalization",
                  "config": {
                    "name": "block_2_project_BN",
                    "trainable": false,
                    "dtype": "float32",
                    "axis": [
                      3
                    ],
                    "momentum": 0.999,
                    "epsilon": 0.001,
                    "center": true,
                    "scale": true,
                    "beta_initializer": {
                      "class_name": "Zeros",
                      "config": {}
                    },
                    "gamma_initializer": {
                      "class_name": "Ones",
                      "config": {}
                    },
                    "moving_mean_initializer": {
                      "class_name": "Zeros",
                      "config": {}
                    },
                    "moving_variance_initializer": {
                      "class_name": "Ones",
                      "config": {}
                    },
                    "beta_regularizer": null,
                    "gamma_regularizer": null,
                    "beta_constraint": null,
                    "gamma_constraint": null
                  },
                  "name": "block_2_project_BN",
                  "inbound_nodes": [
                    [
                      [
                        "block_2_project",
                        0,
                        0,
                        {}
                      ]
                    ]
                  ]
                },
                {
                  "class_name": "Add",
                  "config": {
                    "name": "block_2_add",
                    "trainable": false,
                    "dtype": "float32"
                  },
                  "name": "block_2_add",
                  "inbound_nodes": [
                    [
                      [
                        "block_1_project_BN",
                        0,
                        0,
                        {}
                      ],
                      [
                        "block_2_project_BN",
                        0,
                        0,
                        {}
                      ]
                    ]
                  ]
                },
                {
                  "class_name": "Conv2D",
                  "config": {
                    "name": "block_3_expand",
                    "trainable": false,
                    "dtype": "float32",
                    "filters": 144,
                    "kernel_size": [
                      1,
                      1
                    ],
                    "strides": [
                      1,
                      1
                    ],
                    "padding": "same",
                    "data_format": "channels_last",
                    "dilation_rate": [
                      1,
                      1
                    ],
                    "groups": 1,
                    "activation": "linear",
                    "use_bias": false,
                    "kernel_initializer": {
                      "class_name": "GlorotUniform",
                      "config": {
                        "seed": null
                      }
                    },
                    "bias_initializer": {
                      "class_name": "Zeros",
                      "config": {}
                    },
                    "kernel_regularizer": null,
                    "bias_regularizer": null,
                    "activity_regularizer": null,
                    "kernel_constraint": null,
                    "bias_constraint": null
                  },
                  "name": "block_3_expand",
                  "inbound_nodes": [
                    [
                      [
                        "block_2_add",
                        0,
                        0,
                        {}
                      ]
                    ]
                  ]
                },
                {
                  "class_name": "BatchNormalization",
                  "config": {
                    "name": "block_3_expand_BN",
                    "trainable": false,
                    "dtype": "float32",
                    "axis": [
                      3
                    ],
                    "momentum": 0.999,
                    "epsilon": 0.001,
                    "center": true,
                    "scale": true,
                    "beta_initializer": {
                      "class_name": "Zeros",
                      "config": {}
                    },
                    "gamma_initializer": {
                      "class_name": "Ones",
                      "config": {}
                    },
                    "moving_mean_initializer": {
                      "class_name": "Zeros",
                      "config": {}
                    },
                    "moving_variance_initializer": {
                      "class_name": "Ones",
                      "config": {}
                    },
                    "beta_regularizer": null,
                    "gamma_regularizer": null,
                    "beta_constraint": null,
                    "gamma_constraint": null
                  },
                  "name": "block_3_expand_BN",
                  "inbound_nodes": [
                    [
                      [
                        "block_3_expand",
                        0,
                        0,
                        {}
                      ]
                    ]
                  ]
                },
                {
                  "class_name": "ReLU",
                  "config": {
                    "name": "block_3_expand_relu",
                    "trainable": false,
                    "dtype": "float32",
                    "max_value": 6.0,
                    "negative_slope": 0.0,
                    "threshold": 0.0
                  },
                  "name": "block_3_expand_relu",
                  "inbound_nodes": [
                    [
                      [
                        "block_3_expand_BN",
                        0,
                        0,
                        {}
                      ]
                    ]
                  ]
                },
                {
                  "class_name": "ZeroPadding2D",
                  "config": {
                    "name": "block_3_pad",
                    "trainable": false,
                    "dtype": "float32",
                    "padding": [
                      [
                        0,
                        1
                      ],
                      [
                        0,
                        1
                      ]
                    ],
                    "data_format": "channels_last"
                  },
                  "name": "block_3_pad",
                  "inbound_nodes": [
                    [
                      [
                        "block_3_expand_relu",
                        0,
                        0,
                        {}
                      ]
                    ]
                  ]
                },
                {
                  "class_name": "DepthwiseConv2D",
                  "config": {
                    "name": "block_3_depthwise",
                    "trainable": false,
                    "dtype": "float32",
                    "kernel_size": [
                      3,
                      3
                    ],
                    "strides": [
                      2,
                      2
                    ],
                    "padding": "valid",
                    "data_format": "channels_last",
                    "dilation_rate": [
                      1,
                      1
                    ],
                    "groups": 1,
                    "activation": "linear",
                    "use_bias": false,
                    "bias_initializer": {
                      "class_name": "Zeros",
                      "config": {}
                    },
                    "bias_regularizer": null,
                    "activity_regularizer": null,
                    "bias_constraint": null,
                    "depth_multiplier": 1,
                    "depthwise_initializer": {
                      "class_name": "GlorotUniform",
                      "config": {
                        "seed": null
                      }
                    },
                    "depthwise_regularizer": null,
                    "depthwise_constraint": null
                  },
                  "name": "block_3_depthwise",
                  "inbound_nodes": [
                    [
                      [
                        "block_3_pad",
                        0,
                        0,
                        {}
                      ]
                    ]
                  ]
                },
                {
                  "class_name": "BatchNormalization",
                  "config": {
                    "name": "block_3_depthwise_BN",
                    "trainable": false,
                    "dtype": "float32",
                    "axis": [
                      3
                    ],
                    "momentum": 0.999,
                    "epsilon": 0.001,
                    "center": true,
                    "scale": true,
                    "beta_initializer": {
                      "class_name": "Zeros",
                      "config": {}
                    },
                    "gamma_initializer": {
                      "class_name": "Ones",
                      "config": {}
                    },
                    "moving_mean_initializer": {
                      "class_name": "Zeros",
                      "config": {}
                    },
                    "moving_variance_initializer": {
                      "class_name": "Ones",
                      "config": {}
                    },
                    "beta_regularizer": null,
                    "gamma_regularizer": null,
                    "beta_constraint": null,
                    "gamma_constraint": null
                  },
                  "name": "block_3_depthwise_BN",
                  "inbound_nodes": [
                    [
                      [
                        "block_3_depthwise",
                        0,
                        0,
                        {}
                      ]
                    ]
                  ]
                },
                {
                  "class_name": "ReLU",
                  "config": {
                    "name": "block_3_depthwise_relu",
                    "trainable": false,
                    "dtype": "float32",
                    "max_value": 6.0,
                    "negative_slope": 0.0,
                    "threshold": 0.0
                  },
                  "name": "block_3_depthwise_relu",
                  "inbound_nodes": [
                    [
                      [
                        "block_3_depthwise_BN",
                        0,
                        0,
                        {}
                      ]
                    ]
                  ]
                },
                {
                  "class_name": "Conv2D",
                  "config": {
                    "name": "block_3_project",
                    "trainable": false,
                    "dtype": "float32",
                    "filters": 32,
                    "kernel_size": [
                      1,
                      1
                    ],
                    "strides": [
                      1,
                      1
                    ],
                    "padding": "same",
                    "data_format": "channels_last",
                    "dilation_rate": [
                      1,
                      1
                    ],
                    "groups": 1,
                    "activation": "linear",
                    "use_bias": false,
                    "kernel_initializer": {
                      "class_name": "GlorotUniform",
                      "config": {
                        "seed": null
                      }
                    },
                    "bias_initializer": {
                      "class_name": "Zeros",
                      "config": {}
                    },
                    "kernel_regularizer": null,
                    "bias_regularizer": null,
                    "activity_regularizer": null,
                    "kernel_constraint": null,
                    "bias_constraint": null
                  },
                  "name": "block_3_project",
                  "inbound_nodes": [
                    [
                      [
                        "block_3_depthwise_relu",
                        0,
                        0,
                        {}
                      ]
                    ]
                  ]
                },
                {
                  "class_name": "BatchNormalization",
                  "config": {
                    "name": "block_3_project_BN",
                    "trainable": false,
                    "dtype": "float32",
                    "axis": [
                      3
                    ],
                    "momentum": 0.999,
                    "epsilon": 0.001,
                    "center": true,
                    "scale": true,
                    "beta_initializer": {
                      "class_name": "Zeros",
                      "config": {}
                    },
                    "gamma_initializer": {
                      "class_name": "Ones",
                      "config": {}
                    },
                    "moving_mean_initializer": {
                      "class_name": "Zeros",
                      "config": {}
                    },
                    "moving_variance_initializer": {
                      "class_name": "Ones",
                      "config": {}
                    },
                    "beta_regularizer": null,
                    "gamma_regularizer": null,
                    "beta_constraint": null,
                    "gamma_constraint": null
                  },
                  "name": "block_3_project_BN",
                  "inbound_nodes": [
                    [
                      [
                        "block_3_project",
                        0,
                        0,
                        {}
                      ]
                    ]
                  ]
                },
                {
                  "class_name": "Conv2D",
                  "config": {
                    "name": "block_4_expand",
                    "trainable": false,
                    "dtype": "float32",
                    "filters": 192,
                    "kernel_size": [
                      1,
                      1
                    ],
                    "strides": [
                      1,
                      1
                    ],
                    "padding": "same",
                    "data_format": "channels_last",
                    "dilation_rate": [
                      1,
                      1
                    ],
                    "groups": 1,
                    "activation": "linear",
                    "use_bias": false,
                    "kernel_initializer": {
                      "class_name": "GlorotUniform",
                      "config": {
                        "seed": null
                      }
                    },
                    "bias_initializer": {
                      "class_name": "Zeros",
                      "config": {}
                    },
                    "kernel_regularizer": null,
                    "bias_regularizer": null,
                    "activity_regularizer": null,
                    "kernel_constraint": null,
                    "bias_constraint": null
                  },
                  "name": "block_4_expand",
                  "inbound_nodes": [
                    [
                      [
                        "block_3_project_BN",
                        0,
                        0,
                        {}
                      ]
                    ]
                  ]
                },
                {
                  "class_name": "BatchNormalization",
                  "config": {
                    "name": "block_4_expand_BN",
                    "trainable": false,
                    "dtype": "float32",
                    "axis": [
                      3
                    ],
                    "momentum": 0.999,
                    "epsilon": 0.001,
                    "center": true,
                    "scale": true,
                    "beta_initializer": {
                      "class_name": "Zeros",
                      "config": {}
                    },
                    "gamma_initializer": {
                      "class_name": "Ones",
                      "config": {}
                    },
                    "moving_mean_initializer": {
                      "class_name": "Zeros",
                      "config": {}
                    },
                    "moving_variance_initializer": {
                      "class_name": "Ones",
                      "config": {}
                    },
                    "beta_regularizer": null,
                    "gamma_regularizer": null,
                    "beta_constraint": null,
                    "gamma_constraint": null
                  },
                  "name": "block_4_expand_BN",
                  "inbound_nodes": [
                    [
                      [
                        "block_4_expand",
                        0,
                        0,
                        {}
                      ]
                    ]
                  ]
                },
                {
                  "class_name": "ReLU",
                  "config": {
                    "name": "block_4_expand_relu",
                    "trainable": false,
                    "dtype": "float32",
                    "max_value": 6.0,
                    "negative_slope": 0.0,
                    "threshold": 0.0
                  },
                  "name": "block_4_expand_relu",
                  "inbound_nodes": [
                    [
                      [
                        "block_4_expand_BN",
                        0,
                        0,
                        {}
                      ]
                    ]
                  ]
                },
                {
                  "class_name": "DepthwiseConv2D",
                  "config": {
                    "name": "block_4_depthwise",
                    "trainable": false,
                    "dtype": "float32",
                    "kernel_size": [
                      3,
                      3
                    ],
                    "strides": [
                      1,
                      1
                    ],
                    "padding": "same",
                    "data_format": "channels_last",
                    "dilation_rate": [
                      1,
                      1
                    ],
                    "groups": 1,
                    "activation": "linear",
                    "use_bias": false,
                    "bias_initializer": {
                      "class_name": "Zeros",
                      "config": {}
                    },
                    "bias_regularizer": null,
                    "activity_regularizer": null,
                    "bias_constraint": null,
                    "depth_multiplier": 1,
                    "depthwise_initializer": {
                      "class_name": "GlorotUniform",
                      "config": {
                        "seed": null
                      }
                    },
                    "depthwise_regularizer": null,
                    "depthwise_constraint": null
                  },
                  "name": "block_4_depthwise",
                  "inbound_nodes": [
                    [
                      [
                        "block_4_expand_relu",
                        0,
                        0,
                        {}
                      ]
                    ]
                  ]
                },
                {
                  "class_name": "BatchNormalization",
                  "config": {
                    "name": "block_4_depthwise_BN",
                    "trainable": false,
                    "dtype": "float32",
                    "axis": [
                      3
                    ],
                    "momentum": 0.999,
                    "epsilon": 0.001,
                    "center": true,
                    "scale": true,
                    "beta_initializer": {
                      "class_name": "Zeros",
                      "config": {}
                    },
                    "gamma_initializer": {
                      "class_name": "Ones",
                      "config": {}
                    },
                    "moving_mean_initializer": {
                      "class_name": "Zeros",
                      "config": {}
                    },
                    "moving_variance_initializer": {
                      "class_name": "Ones",
                      "config": {}
                    },
                    "beta_regularizer": null,
                    "gamma_regularizer": null,
                    "beta_constraint": null,
                    "gamma_constraint": null
                  },
                  "name": "block_4_depthwise_BN",
                  "inbound_nodes": [
                    [
                      [
                        "block_4_depthwise",
                        0,
                        0,
                        {}
                      ]
                    ]
                  ]
                },
                {
                  "class_name": "ReLU",
                  "config": {
                    "name": "block_4_depthwise_relu",
                    "trainable": false,
                    "dtype": "float32",
                    "max_value": 6.0,
                    "negative_slope": 0.0,
                    "threshold": 0.0
                  },
                  "name": "block_4_depthwise_relu",
                  "inbound_nodes": [
                    [
                      [
                        "block_4_depthwise_BN",
                        0,
                        0,
                        {}
                      ]
                    ]
                  ]
                },
                {
                  "class_name": "Conv2D",
                  "config": {
                    "name": "block_4_project",
                    "trainable": false,
                    "dtype": "float32",
                    "filters": 32,
                    "kernel_size": [
                      1,
                      1
                    ],
                    "strides": [
                      1,
                      1
                    ],
                    "padding": "same",
                    "data_format": "channels_last",
                    "dilation_rate": [
                      1,
                      1
                    ],
                    "groups": 1,
                    "activation": "linear",
                    "use_bias": false,
                    "kernel_initializer": {
                      "class_name": "GlorotUniform",
                      "config": {
                        "seed": null
                      }
                    },
                    "bias_initializer": {
                      "class_name": "Zeros",
                      "config": {}
                    },
                    "kernel_regularizer": null,
                    "bias_regularizer": null,
                    "activity_regularizer": null,
                    "kernel_constraint": null,
                    "bias_constraint": null
                  },
                  "name": "block_4_project",
                  "inbound_nodes": [
                    [
                      [
                        "block_4_depthwise_relu",
                        0,
                        0,
                        {}
                      ]
                    ]
                  ]
                },
                {
                  "class_name": "BatchNormalization",
                  "config": {
                    "name": "block_4_project_BN",
                    "trainable": false,
                    "dtype": "float32",
                    "axis": [
                      3
                    ],
                    "momentum": 0.999,
                    "epsilon": 0.001,
                    "center": true,
                    "scale": true,
                    "beta_initializer": {
                      "class_name": "Zeros",
                      "config": {}
                    },
                    "gamma_initializer": {
                      "class_name": "Ones",
                      "config": {}
                    },
                    "moving_mean_initializer": {
                      "class_name": "Zeros",
                      "config": {}
                    },
                    "moving_variance_initializer": {
                      "class_name": "Ones",
                      "config": {}
                    },
                    "beta_regularizer": null,
                    "gamma_regularizer": null,
                    "beta_constraint": null,
                    "gamma_constraint": null
                  },
                  "name": "block_4_project_BN",
                  "inbound_nodes": [
                    [
                      [
                        "block_4_project",
                        0,
                        0,
                        {}
                      ]
                    ]
                  ]
                },
                {
                  "class_name": "Add",
                  "config": {
                    "name": "block_4_add",
                    "trainable": false,
                    "dtype": "float32"
                  },
                  "name": "block_4_add",
                  "inbound_nodes": [
                    [
                      [
                        "block_3_project_BN",
                        0,
                        0,
                        {}
                      ],
                      [
                        "block_4_project_BN",
                        0,
                        0,
                        {}
                      ]
                    ]
                  ]
                },
                {
                  "class_name": "Conv2D",
                  "config": {
                    "name": "block_5_expand",
                    "trainable": false,
                    "dtype": "float32",
                    "filters": 192,
                    "kernel_size": [
                      1,
                      1
                    ],
                    "strides": [
                      1,
                      1
                    ],
                    "padding": "same",
                    "data_format": "channels_last",
                    "dilation_rate": [
                      1,
                      1
                    ],
                    "groups": 1,
                    "activation": "linear",
                    "use_bias": false,
                    "kernel_initializer": {
                      "class_name": "GlorotUniform",
                      "config": {
                        "seed": null
                      }
                    },
                    "bias_initializer": {
                      "class_name": "Zeros",
                      "config": {}
                    },
                    "kernel_regularizer": null,
                    "bias_regularizer": null,
                    "activity_regularizer": null,
                    "kernel_constraint": null,
                    "bias_constraint": null
                  },
                  "name": "block_5_expand",
                  "inbound_nodes": [
                    [
                      [
                        "block_4_add",
                        0,
                        0,
                        {}
                      ]
                    ]
                  ]
                },
                {
                  "class_name": "BatchNormalization",
                  "config": {
                    "name": "block_5_expand_BN",
                    "trainable": false,
                    "dtype": "float32",
                    "axis": [
                      3
                    ],
                    "momentum": 0.999,
                    "epsilon": 0.001,
                    "center": true,
                    "scale": true,
                    "beta_initializer": {
                      "class_name": "Zeros",
                      "config": {}
                    },
                    "gamma_initializer": {
                      "class_name": "Ones",
                      "config": {}
                    },
                    "moving_mean_initializer": {
                      "class_name": "Zeros",
                      "config": {}
                    },
                    "moving_variance_initializer": {
                      "class_name": "Ones",
                      "config": {}
                    },
                    "beta_regularizer": null,
                    "gamma_regularizer": null,
                    "beta_constraint": null,
                    "gamma_constraint": null
                  },
                  "name": "block_5_expand_BN",
                  "inbound_nodes": [
                    [
                      [
                        "block_5_expand",
                        0,
                        0,
                        {}
                      ]
                    ]
                  ]
                },
                {
                  "class_name": "ReLU",
                  "config": {
                    "name": "block_5_expand_relu",
                    "trainable": false,
                    "dtype": "float32",
                    "max_value": 6.0,
                    "negative_slope": 0.0,
                    "threshold": 0.0
                  },
                  "name": "block_5_expand_relu",
                  "inbound_nodes": [
                    [
                      [
                        "block_5_expand_BN",
                        0,
                        0,
                        {}
                      ]
                    ]
                  ]
                },
                {
                  "class_name": "DepthwiseConv2D",
                  "config": {
                    "name": "block_5_depthwise",
                    "trainable": false,
                    "dtype": "float32",
                    "kernel_size": [
                      3,
                      3
                    ],
                    "strides": [
                      1,
                      1
                    ],
                    "padding": "same",
                    "data_format": "channels_last",
                    "dilation_rate": [
                      1,
                      1
                    ],
                    "groups": 1,
                    "activation": "linear",
                    "use_bias": false,
                    "bias_initializer": {
                      "class_name": "Zeros",
                      "config": {}
                    },
                    "bias_regularizer": null,
                    "activity_regularizer": null,
                    "bias_constraint": null,
                    "depth_multiplier": 1,
                    "depthwise_initializer": {
                      "class_name": "GlorotUniform",
                      "config": {
                        "seed": null
                      }
                    },
                    "depthwise_regularizer": null,
                    "depthwise_constraint": null
                  },
                  "name": "block_5_depthwise",
                  "inbound_nodes": [
                    [
                      [
                        "block_5_expand_relu",
                        0,
                        0,
                        {}
                      ]
                    ]
                  ]
                },
                {
                  "class_name": "BatchNormalization",
                  "config": {
                    "name": "block_5_depthwise_BN",
                    "trainable": false,
                    "dtype": "float32",
                    "axis": [
                      3
                    ],
                    "momentum": 0.999,
                    "epsilon": 0.001,
                    "center": true,
                    "scale": true,
                    "beta_initializer": {
                      "class_name": "Zeros",
                      "config": {}
                    },
                    "gamma_initializer": {
                      "class_name": "Ones",
                      "config": {}
                    },
                    "moving_mean_initializer": {
                      "class_name": "Zeros",
                      "config": {}
                    },
                    "moving_variance_initializer": {
                      "class_name": "Ones",
                      "config": {}
                    },
                    "beta_regularizer": null,
                    "gamma_regularizer": null,
                    "beta_constraint": null,
                    "gamma_constraint": null
                  },
                  "name": "block_5_depthwise_BN",
                  "inbound_nodes": [
                    [
                      [
                        "block_5_depthwise",
                        0,
                        0,
                        {}
                      ]
                    ]
                  ]
                },
                {
                  "class_name": "ReLU",
                  "config": {
                    "name": "block_5_depthwise_relu",
                    "trainable": false,
                    "dtype": "float32",
                    "max_value": 6.0,
                    "negative_slope": 0.0,
                    "threshold": 0.0
                  },
                  "name": "block_5_depthwise_relu",
                  "inbound_nodes": [
                    [
                      [
                        "block_5_depthwise_BN",
                        0,
                        0,
                        {}
                      ]
                    ]
                  ]
                },
                {
                  "class_name": "Conv2D",
                  "config": {
                    "name": "block_5_project",
                    "trainable": false,
                    "dtype": "float32",
                    "filters": 32,
                    "kernel_size": [
                      1,
                      1
                    ],
                    "strides": [
                      1,
                      1
                    ],
                    "padding": "same",
                    "data_format": "channels_last",
                    "dilation_rate": [
                      1,
                      1
                    ],
                    "groups": 1,
                    "activation": "linear",
                    "use_bias": false,
                    "kernel_initializer": {
                      "class_name": "GlorotUniform",
                      "config": {
                        "seed": null
                      }
                    },
                    "bias_initializer": {
                      "class_name": "Zeros",
                      "config": {}
                    },
                    "kernel_regularizer": null,
                    "bias_regularizer": null,
                    "activity_regularizer": null,
                    "kernel_constraint": null,
                    "bias_constraint": null
                  },
                  "name": "block_5_project",
                  "inbound_nodes": [
                    [
                      [
                        "block_5_depthwise_relu",
                        0,
                        0,
                        {}
                      ]
                    ]
                  ]
                },
                {
                  "class_name": "BatchNormalization",
                  "config": {
                    "name": "block_5_project_BN",
                    "trainable": false,
                    "dtype": "float32",
                    "axis": [
                      3
                    ],
                    "momentum": 0.999,
                    "epsilon": 0.001,
                    "center": true,
                    "scale": true,
                    "beta_initializer": {
                      "class_name": "Zeros",
                      "config": {}
                    },
                    "gamma_initializer": {
                      "class_name": "Ones",
                      "config": {}
                    },
                    "moving_mean_initializer": {
                      "class_name": "Zeros",
                      "config": {}
                    },
                    "moving_variance_initializer": {
                      "class_name": "Ones",
                      "config": {}
                    },
                    "beta_regularizer": null,
                    "gamma_regularizer": null,
                    "beta_constraint": null,
                    "gamma_constraint": null
                  },
                  "name": "block_5_project_BN",
                  "inbound_nodes": [
                    [
                      [
                        "block_5_project",
                        0,
                        0,
                        {}
                      ]
                    ]
                  ]
                },
                {
                  "class_name": "Add",
                  "config": {
                    "name": "block_5_add",
                    "trainable": true,
                    "dtype": "float32"
                  },
                  "name": "block_5_add",
                  "inbound_nodes": [
                    [
                      [
                        "block_4_add",
                        0,
                        0,
                        {}
                      ],
                      [
                        "block_5_project_BN",
                        0,
                        0,
                        {}
                      ]
                    ]
                  ]
                },
                {
                  "class_name": "Conv2D",
                  "config": {
                    "name": "block_6_expand",
                    "trainable": true,
                    "dtype": "float32",
                    "filters": 192,
                    "kernel_size": [
                      1,
                      1
                    ],
                    "strides": [
                      1,
                      1
                    ],
                    "padding": "same",
                    "data_format": "channels_last",
                    "dilation_rate": [
                      1,
                      1
                    ],
                    "groups": 1,
                    "activation": "linear",
                    "use_bias": false,
                    "kernel_initializer": {
                      "class_name": "GlorotUniform",
                      "config": {
                        "seed": null
                      }
                    },
                    "bias_initializer": {
                      "class_name": "Zeros",
                      "config": {}
                    },
                    "kernel_regularizer": null,
                    "bias_regularizer": null,
                    "activity_regularizer": null,
                    "kernel_constraint": null,
                    "bias_constraint": null
                  },
                  "name": "block_6_expand",
                  "inbound_nodes": [
                    [
                      [
                        "block_5_add",
                        0,
                        0,
                        {}
                      ]
                    ]
                  ]
                },
                {
                  "class_name": "BatchNormalization",
                  "config": {
                    "name": "block_6_expand_BN",
                    "trainable": true,
                    "dtype": "float32",
                    "axis": [
                      3
                    ],
                    "momentum": 0.999,
                    "epsilon": 0.001,
                    "center": true,
                    "scale": true,
                    "beta_initializer": {
                      "class_name": "Zeros",
                      "config": {}
                    },
                    "gamma_initializer": {
                      "class_name": "Ones",
                      "config": {}
                    },
                    "moving_mean_initializer": {
                      "class_name": "Zeros",
                      "config": {}
                    },
                    "moving_variance_initializer": {
                      "class_name": "Ones",
                      "config": {}
                    },
                    "beta_regularizer": null,
                    "gamma_regularizer": null,
                    "beta_constraint": null,
                    "gamma_constraint": null
                  },
                  "name": "block_6_expand_BN",
                  "inbound_nodes": [
                    [
                      [
                        "block_6_expand",
                        0,
                        0,
                        {}
                      ]
                    ]
                  ]
                },
                {
                  "class_name": "ReLU",
                  "config": {
                    "name": "block_6_expand_relu",
                    "trainable": true,
                    "dtype": "float32",
                    "max_value": 6.0,
                    "negative_slope": 0.0,
                    "threshold": 0.0
                  },
                  "name": "block_6_expand_relu",
                  "inbound_nodes": [
                    [
                      [
                        "block_6_expand_BN",
                        0,
                        0,
                        {}
                      ]
                    ]
                  ]
                },
                {
                  "class_name": "ZeroPadding2D",
                  "config": {
                    "name": "block_6_pad",
                    "trainable": true,
                    "dtype": "float32",
                    "padding": [
                      [
                        0,
                        1
                      ],
                      [
                        0,
                        1
                      ]
                    ],
                    "data_format": "channels_last"
                  },
                  "name": "block_6_pad",
                  "inbound_nodes": [
                    [
                      [
                        "block_6_expand_relu",
                        0,
                        0,
                        {}
                      ]
                    ]
                  ]
                },
                {
                  "class_name": "DepthwiseConv2D",
                  "config": {
                    "name": "block_6_depthwise",
                    "trainable": true,
                    "dtype": "float32",
                    "kernel_size": [
                      3,
                      3
                    ],
                    "strides": [
                      2,
                      2
                    ],
                    "padding": "valid",
                    "data_format": "channels_last",
                    "dilation_rate": [
                      1,
                      1
                    ],
                    "groups": 1,
                    "activation": "linear",
                    "use_bias": false,
                    "bias_initializer": {
                      "class_name": "Zeros",
                      "config": {}
                    },
                    "bias_regularizer": null,
                    "activity_regularizer": null,
                    "bias_constraint": null,
                    "depth_multiplier": 1,
                    "depthwise_initializer": {
                      "class_name": "GlorotUniform",
                      "config": {
                        "seed": null
                      }
                    },
                    "depthwise_regularizer": null,
                    "depthwise_constraint": null
                  },
                  "name": "block_6_depthwise",
                  "inbound_nodes": [
                    [
                      [
                        "block_6_pad",
                        0,
                        0,
                        {}
                      ]
                    ]
                  ]
                },
                {
                  "class_name": "BatchNormalization",
                  "config": {
                    "name": "block_6_depthwise_BN",
                    "trainable": true,
                    "dtype": "float32",
                    "axis": [
                      3
                    ],
                    "momentum": 0.999,
                    "epsilon": 0.001,
                    "center": true,
                    "scale": true,
                    "beta_initializer": {
                      "class_name": "Zeros",
                      "config": {}
                    },
                    "gamma_initializer": {
                      "class_name": "Ones",
                      "config": {}
                    },
                    "moving_mean_initializer": {
                      "class_name": "Zeros",
                      "config": {}
                    },
                    "moving_variance_initializer": {
                      "class_name": "Ones",
                      "config": {}
                    },
                    "beta_regularizer": null,
                    "gamma_regularizer": null,
                    "beta_constraint": null,
                    "gamma_constraint": null
                  },
                  "name": "block_6_depthwise_BN",
                  "inbound_nodes": [
                    [
                      [
                        "block_6_depthwise",
                        0,
                        0,
                        {}
                      ]
                    ]
                  ]
                },
                {
                  "class_name": "ReLU",
                  "config": {
                    "name": "block_6_depthwise_relu",
                    "trainable": true,
                    "dtype": "float32",
                    "max_value": 6.0,
                    "negative_slope": 0.0,
                    "threshold": 0.0
                  },
                  "name": "block_6_depthwise_relu",
                  "inbound_nodes": [
                    [
                      [
                        "block_6_depthwise_BN",
                        0,
                        0,
                        {}
                      ]
                    ]
                  ]
                },
                {
                  "class_name": "Conv2D",
                  "config": {
                    "name": "block_6_project",
                    "trainable": true,
                    "dtype": "float32",
                    "filters": 64,
                    "kernel_size": [
                      1,
                      1
                    ],
                    "strides": [
                      1,
                      1
                    ],
                    "padding": "same",
                    "data_format": "channels_last",
                    "dilation_rate": [
                      1,
                      1
                    ],
                    "groups": 1,
                    "activation": "linear",
                    "use_bias": false,
                    "kernel_initializer": {
                      "class_name": "GlorotUniform",
                      "config": {
                        "seed": null
                      }
                    },
                    "bias_initializer": {
                      "class_name": "Zeros",
                      "config": {}
                    },
                    "kernel_regularizer": null,
                    "bias_regularizer": null,
                    "activity_regularizer": null,
                    "kernel_constraint": null,
                    "bias_constraint": null
                  },
                  "name": "block_6_project",
                  "inbound_nodes": [
                    [
                      [
                        "block_6_depthwise_relu",
                        0,
                        0,
                        {}
                      ]
                    ]
                  ]
                },
                {
                  "class_name": "BatchNormalization",
                  "config": {
                    "name": "block_6_project_BN",
                    "trainable": true,
                    "dtype": "float32",
                    "axis": [
                      3
                    ],
                    "momentum": 0.999,
                    "epsilon": 0.001,
                    "center": true,
                    "scale": true,
                    "beta_initializer": {
                      "class_name": "Zeros",
                      "config": {}
                    },
                    "gamma_initializer": {
                      "class_name": "Ones",
                      "config": {}
                    },
                    "moving_mean_initializer": {
                      "class_name": "Zeros",
                      "config": {}
                    },
                    "moving_variance_initializer": {
                      "class_name": "Ones",
                      "config": {}
                    },
                    "beta_regularizer": null,
                    "gamma_regularizer": null,
                    "beta_constraint": null,
                    "gamma_constraint": null
                  },
                  "name": "block_6_project_BN",
                  "inbound_nodes": [
                    [
                      [
                        "block_6_project",
                        0,
                        0,
                        {}
                      ]
                    ]
                  ]
                },
                {
                  "class_name": "Conv2D",
                  "config": {
                    "name": "block_7_expand",
                    "trainable": true,
                    "dtype": "float32",
                    "filters": 384,
                    "kernel_size": [
                      1,
                      1
                    ],
                    "strides": [
                      1,
                      1
                    ],
                    "padding": "same",
                    "data_format": "channels_last",
                    "dilation_rate": [
                      1,
                      1
                    ],
                    "groups": 1,
                    "activation": "linear",
                    "use_bias": false,
                    "kernel_initializer": {
                      "class_name": "GlorotUniform",
                      "config": {
                        "seed": null
                      }
                    },
                    "bias_initializer": {
                      "class_name": "Zeros",
                      "config": {}
                    },
                    "kernel_regularizer": null,
                    "bias_regularizer": null,
                    "activity_regularizer": null,
                    "kernel_constraint": null,
                    "bias_constraint": null
                  },
                  "name": "block_7_expand",
                  "inbound_nodes": [
                    [
                      [
                        "block_6_project_BN",
                        0,
                        0,
                        {}
                      ]
                    ]
                  ]
                },
                {
                  "class_name": "BatchNormalization",
                  "config": {
                    "name": "block_7_expand_BN",
                    "trainable": true,
                    "dtype": "float32",
                    "axis": [
                      3
                    ],
                    "momentum": 0.999,
                    "epsilon": 0.001,
                    "center": true,
                    "scale": true,
                    "beta_initializer": {
                      "class_name": "Zeros",
                      "config": {}
                    },
                    "gamma_initializer": {
                      "class_name": "Ones",
                      "config": {}
                    },
                    "moving_mean_initializer": {
                      "class_name": "Zeros",
                      "config": {}
                    },
                    "moving_variance_initializer": {
                      "class_name": "Ones",
                      "config": {}
                    },
                    "beta_regularizer": null,
                    "gamma_regularizer": null,
                    "beta_constraint": null,
                    "gamma_constraint": null
                  },
                  "name": "block_7_expand_BN",
                  "inbound_nodes": [
                    [
                      [
                        "block_7_expand",
                        0,
                        0,
                        {}
                      ]
                    ]
                  ]
                },
                {
                  "class_name": "ReLU",
                  "config": {
                    "name": "block_7_expand_relu",
                    "trainable": true,
                    "dtype": "float32",
                    "max_value": 6.0,
                    "negative_slope": 0.0,
                    "threshold": 0.0
                  },
                  "name": "block_7_expand_relu",
                  "inbound_nodes": [
                    [
                      [
                        "block_7_expand_BN",
                        0,
                        0,
                        {}
                      ]
                    ]
                  ]
                },
                {
                  "class_name": "DepthwiseConv2D",
                  "config": {
                    "name": "block_7_depthwise",
                    "trainable": true,
                    "dtype": "float32",
                    "kernel_size": [
                      3,
                      3
                    ],
                    "strides": [
                      1,
                      1
                    ],
                    "padding": "same",
                    "data_format": "channels_last",
                    "dilation_rate": [
                      1,
                      1
                    ],
                    "groups": 1,
                    "activation": "linear",
                    "use_bias": false,
                    "bias_initializer": {
                      "class_name": "Zeros",
                      "config": {}
                    },
                    "bias_regularizer": null,
                    "activity_regularizer": null,
                    "bias_constraint": null,
                    "depth_multiplier": 1,
                    "depthwise_initializer": {
                      "class_name": "GlorotUniform",
                      "config": {
                        "seed": null
                      }
                    },
                    "depthwise_regularizer": null,
                    "depthwise_constraint": null
                  },
                  "name": "block_7_depthwise",
                  "inbound_nodes": [
                    [
                      [
                        "block_7_expand_relu",
                        0,
                        0,
                        {}
                      ]
                    ]
                  ]
                },
                {
                  "class_name": "BatchNormalization",
                  "config": {
                    "name": "block_7_depthwise_BN",
                    "trainable": true,
                    "dtype": "float32",
                    "axis": [
                      3
                    ],
                    "momentum": 0.999,
                    "epsilon": 0.001,
                    "center": true,
                    "scale": true,
                    "beta_initializer": {
                      "class_name": "Zeros",
                      "config": {}
                    },
                    "gamma_initializer": {
                      "class_name": "Ones",
                      "config": {}
                    },
                    "moving_mean_initializer": {
                      "class_name": "Zeros",
                      "config": {}
                    },
                    "moving_variance_initializer": {
                      "class_name": "Ones",
                      "config": {}
                    },
                    "beta_regularizer": null,
                    "gamma_regularizer": null,
                    "beta_constraint": null,
                    "gamma_constraint": null
                  },
                  "name": "block_7_depthwise_BN",
                  "inbound_nodes": [
                    [
                      [
                        "block_7_depthwise",
                        0,
                        0,
                        {}
                      ]
                    ]
                  ]
                },
                {
                  "class_name": "ReLU",
                  "config": {
                    "name": "block_7_depthwise_relu",
                    "trainable": true,
                    "dtype": "float32",
                    "max_value": 6.0,
                    "negative_slope": 0.0,
                    "threshold": 0.0
                  },
                  "name": "block_7_depthwise_relu",
                  "inbound_nodes": [
                    [
                      [
                        "block_7_depthwise_BN",
                        0,
                        0,
                        {}
                      ]
                    ]
                  ]
                },
                {
                  "class_name": "Conv2D",
                  "config": {
                    "name": "block_7_project",
                    "trainable": true,
                    "dtype": "float32",
                    "filters": 64,
                    "kernel_size": [
                      1,
                      1
                    ],
                    "strides": [
                      1,
                      1
                    ],
                    "padding": "same",
                    "data_format": "channels_last",
                    "dilation_rate": [
                      1,
                      1
                    ],
                    "groups": 1,
                    "activation": "linear",
                    "use_bias": false,
                    "kernel_initializer": {
                      "class_name": "GlorotUniform",
                      "config": {
                        "seed": null
                      }
                    },
                    "bias_initializer": {
                      "class_name": "Zeros",
                      "config": {}
                    },
                    "kernel_regularizer": null,
                    "bias_regularizer": null,
                    "activity_regularizer": null,
                    "kernel_constraint": null,
                    "bias_constraint": null
                  },
                  "name": "block_7_project",
                  "inbound_nodes": [
                    [
                      [
                        "block_7_depthwise_relu",
                        0,
                        0,
                        {}
                      ]
                    ]
                  ]
                },
                {
                  "class_name": "BatchNormalization",
                  "config": {
                    "name": "block_7_project_BN",
                    "trainable": true,
                    "dtype": "float32",
                    "axis": [
                      3
                    ],
                    "momentum": 0.999,
                    "epsilon": 0.001,
                    "center": true,
                    "scale": true,
                    "beta_initializer": {
                      "class_name": "Zeros",
                      "config": {}
                    },
                    "gamma_initializer": {
                      "class_name": "Ones",
                      "config": {}
                    },
                    "moving_mean_initializer": {
                      "class_name": "Zeros",
                      "config": {}
                    },
                    "moving_variance_initializer": {
                      "class_name": "Ones",
                      "config": {}
                    },
                    "beta_regularizer": null,
                    "gamma_regularizer": null,
                    "beta_constraint": null,
                    "gamma_constraint": null
                  },
                  "name": "block_7_project_BN",
                  "inbound_nodes": [
                    [
                      [
                        "block_7_project",
                        0,
                        0,
                        {}
                      ]
                    ]
                  ]
                },
                {
                  "class_name": "Add",
                  "config": {
                    "name": "block_7_add",
                    "trainable": true,
                    "dtype": "float32"
                  },
                  "name": "block_7_add",
                  "inbound_nodes": [
                    [
                      [
                        "block_6_project_BN",
                        0,
                        0,
                        {}
                      ],
                      [
                        "block_7_project_BN",
                        0,
                        0,
                        {}
                      ]
                    ]
                  ]
                }
              ],
              "input_layers": [
                [
                  "input_45",
                  0,
                  0
                ]
              ],
              "output_layers": [
                [
                  "block_7_add",
                  0,
                  0
                ]
              ]
            },
            "name": "functional_89",
            "inbound_nodes": [
              [
                [
                  "input_46",
                  0,
                  0,
                  {}
                ]
              ]
            ]
          },
          {
            "class_name": "Conv2D",
            "config": {
              "name": "downsample1",
              "trainable": true,
              "dtype": "float32",
              "filters": 64,
              "kernel_size": [
                3,
                3
              ],
              "strides": [
                2,
                2
              ],
              "padding": "valid",
              "data_format": "channels_last",
              "dilation_rate": [
                1,
                1
              ],
              "groups": 1,
              "activation": "relu",
              "use_bias": true,
              "kernel_initializer": {
                "class_name": "GlorotUniform",
                "config": {
                  "seed": null
                }
              },
              "bias_initializer": {
                "class_name": "Zeros",
                "config": {}
              },
              "kernel_regularizer": null,
              "bias_regularizer": null,
              "activity_regularizer": null,
              "kernel_constraint": null,
              "bias_constraint": null
            },
            "name": "downsample1",
            "inbound_nodes": [
              [
                [
                  "functional_89",
                  1,
                  0,
                  {}
                ]
              ]
            ]
          },
          {
            "class_name": "Conv2D",
            "config": {
              "name": "downsample2",
              "trainable": true,
              "dtype": "float32",
              "filters": 64,
              "kernel_size": [
                3,
                3
              ],
              "strides": [
                1,
                1
              ],
              "padding": "same",
              "data_format": "channels_last",
              "dilation_rate": [
                1,
                1
              ],
              "groups": 1,
              "activation": "relu",
              "use_bias": true,
              "kernel_initializer": {
                "class_name": "GlorotUniform",
                "config": {
                  "seed": null
                }
              },
              "bias_initializer": {
                "class_name": "Zeros",
                "config": {}
              },
              "kernel_regularizer": null,
              "bias_regularizer": null,
              "activity_regularizer": null,
              "kernel_constraint": null,
              "bias_constraint": null
            },
            "name": "downsample2",
            "inbound_nodes": [
              [
                [
                  "downsample1",
                  0,
                  0,
                  {}
                ]
              ]
            ]
          },
          {
            "class_name": "Conv2D",
            "config": {
              "name": "downsample4",
              "trainable": true,
              "dtype": "float32",
              "filters": 128,
              "kernel_size": [
                3,
                3
              ],
              "strides": [
                1,
                1
              ],
              "padding": "same",
              "data_format": "channels_last",
              "dilation_rate": [
                1,
                1
              ],
              "groups": 1,
              "activation": "relu",
              "use_bias": true,
              "kernel_initializer": {
                "class_name": "GlorotUniform",
                "config": {
                  "seed": null
                }
              },
              "bias_initializer": {
                "class_name": "Zeros",
                "config": {}
              },
              "kernel_regularizer": null,
              "bias_regularizer": null,
              "activity_regularizer": null,
              "kernel_constraint": null,
              "bias_constraint": null
            },
            "name": "downsample4",
            "inbound_nodes": [
              [
                [
                  "downsample2",
                  0,
                  0,
                  {}
                ]
              ]
            ]
          },
          {
            "class_name": "Conv2D",
            "config": {
              "name": "confidence",
              "trainable": true,
              "dtype": "float32",
              "filters": 1,
              "kernel_size": [
                3,
                3
              ],
              "strides": [
                1,
                1
              ],
              "padding": "same",
              "data_format": "channels_last",
              "dilation_rate": [
                1,
                1
              ],
              "groups": 1,
              "activation": "sigmoid",
              "use_bias": true,
              "kernel_initializer": {
                "class_name": "GlorotUniform",
                "config": {
                  "seed": null
                }
              },
              "bias_initializer": {
                "class_name": "Zeros",
                "config": {}
              },
              "kernel_regularizer": null,
              "bias_regularizer": null,
              "activity_regularizer": null,
              "kernel_constraint": null,
              "bias_constraint": null
            },
            "name": "confidence",
            "inbound_nodes": [
              [
                [
                  "downsample4",
                  0,
                  0,
                  {}
                ]
              ]
            ]
          },
          {
            "class_name": "Conv2D",
            "config": {
              "name": "regression",
              "trainable": true,
              "dtype": "float32",
              "filters": 4,
              "kernel_size": [
                3,
                3
              ],
              "strides": [
                1,
                1
              ],
              "padding": "same",
              "data_format": "channels_last",
              "dilation_rate": [
                1,
                1
              ],
              "groups": 1,
              "activation": "linear",
              "use_bias": true,
              "kernel_initializer": {
                "class_name": "GlorotUniform",
                "config": {
                  "seed": null
                }
              },
              "bias_initializer": {
                "class_name": "Zeros",
                "config": {}
              },
              "kernel_regularizer": null,
              "bias_regularizer": null,
              "activity_regularizer": null,
              "kernel_constraint": null,
              "bias_constraint": null
            },
            "name": "regression",
            "inbound_nodes": [
              [
                [
                  "downsample4",
                  0,
                  0,
                  {}
                ]
              ]
            ]
          },
          {
            "class_name": "Reshape",
            "config": {
              "name": "reshape_confidence",
              "trainable": true,
              "dtype": "float32",
              "target_shape": [
                36,
                1
              ]
            },
            "name": "reshape_confidence",
            "inbound_nodes": [
              [
                [
                  "confidence",
                  0,
                  0,
                  {}
                ]
              ]
            ]
          },
          {
            "class_name": "Reshape",
            "config": {
              "name": "reshape_regression",
              "trainable": true,
              "dtype": "float32",
              "target_shape": [
                36,
                4
              ]
            },
            "name": "reshape_regression",
            "inbound_nodes": [
              [
                [
                  "regression",
                  0,
                  0,
                  {}
                ]
              ]
            ]
          }
        ],
        "input_layers": [
          [
            "input_46",
            0,
            0
          ]
        ],
        "output_layers": [
          [
            "reshape_confidence",
            0,
            0
          ],
          [
            "reshape_regression",
            0,
            0
          ]
        ]
      }
    }
  },
  "weightsManifest": [
    {
      "paths": [
        "liteWeights.bin"
      ],
      "weights": [
        {
          "name": "confidence/kernel",
          "shape": [
            3,
            3,
            128,
            1
          ],
          "dtype": "float32"
        },
        {
          "name": "confidence/bias",
          "shape": [
            1
          ],
          "dtype": "float32"
        },
        {
          "name": "downsample1/kernel",
          "shape": [
            3,
            3,
            64,
            64
          ],
          "dtype": "float32"
        },
        {
          "name": "downsample1/bias",
          "shape": [
            64
          ],
          "dtype": "float32"
        },
        {
          "name": "downsample2/kernel",
          "shape": [
            3,
            3,
            64,
            64
          ],
          "dtype": "float32"
        },
        {
          "name": "downsample2/bias",
          "shape": [
            64
          ],
          "dtype": "float32"
        },
        {
          "name": "downsample4/kernel",
          "shape": [
            3,
            3,
            64,
            128
          ],
          "dtype": "float32"
        },
        {
          "name": "downsample4/bias",
          "shape": [
            128
          ],
          "dtype": "float32"
        },
        {
          "name": "block_6_expand/kernel",
          "shape": [
            1,
            1,
            32,
            192
          ],
          "dtype": "float32"
        },
        {
          "name": "block_6_expand_BN/gamma",
          "shape": [
            192
          ],
          "dtype": "float32"
        },
        {
          "name": "block_6_expand_BN/beta",
          "shape": [
            192
          ],
          "dtype": "float32"
        },
        {
          "name": "block_6_depthwise/depthwise_kernel",
          "shape": [
            3,
            3,
            192,
            1
          ],
          "dtype": "float32"
        },
        {
          "name": "block_6_depthwise_BN/gamma",
          "shape": [
            192
          ],
          "dtype": "float32"
        },
        {
          "name": "block_6_depthwise_BN/beta",
          "shape": [
            192
          ],
          "dtype": "float32"
        },
        {
          "name": "block_6_project/kernel",
          "shape": [
            1,
            1,
            192,
            64
          ],
          "dtype": "float32"
        },
        {
          "name": "block_6_project_BN/gamma",
          "shape": [
            64
          ],
          "dtype": "float32"
        },
        {
          "name": "block_6_project_BN/beta",
          "shape": [
            64
          ],
          "dtype": "float32"
        },
        {
          "name": "block_7_expand/kernel",
          "shape": [
            1,
            1,
            64,
            384
          ],
          "dtype": "float32"
        },
        {
          "name": "block_7_expand_BN/gamma",
          "shape": [
            384
          ],
          "dtype": "float32"
        },
        {
          "name": "block_7_expand_BN/beta",
          "shape": [
            384
          ],
          "dtype": "float32"
        },
        {
          "name": "block_7_depthwise/depthwise_kernel",
          "shape": [
            3,
            3,
            384,
            1
          ],
          "dtype": "float32"
        },
        {
          "name": "block_7_depthwise_BN/gamma",
          "shape": [
            384
          ],
          "dtype": "float32"
        },
        {
          "name": "block_7_depthwise_BN/beta",
          "shape": [
            384
          ],
          "dtype": "float32"
        },
        {
          "name": "block_7_project/kernel",
          "shape": [
            1,
            1,
            384,
            64
          ],
          "dtype": "float32"
        },
        {
          "name": "block_7_project_BN/gamma",
          "shape": [
            64
          ],
          "dtype": "float32"
        },
        {
          "name": "block_7_project_BN/beta",
          "shape": [
            64
          ],
          "dtype": "float32"
        },
        {
          "name": "Conv1/kernel",
          "shape": [
            3,
            3,
            3,
            32
          ],
          "dtype": "float32"
        },
        {
          "name": "bn_Conv1/gamma",
          "shape": [
            32
          ],
          "dtype": "float32"
        },
        {
          "name": "bn_Conv1/beta",
          "shape": [
            32
          ],
          "dtype": "float32"
        },
        {
          "name": "bn_Conv1/moving_mean",
          "shape": [
            32
          ],
          "dtype": "float32"
        },
        {
          "name": "bn_Conv1/moving_variance",
          "shape": [
            32
          ],
          "dtype": "float32"
        },
        {
          "name": "expanded_conv_depthwise/depthwise_kernel",
          "shape": [
            3,
            3,
            32,
            1
          ],
          "dtype": "float32"
        },
        {
          "name": "expanded_conv_depthwise_BN/gamma",
          "shape": [
            32
          ],
          "dtype": "float32"
        },
        {
          "name": "expanded_conv_depthwise_BN/beta",
          "shape": [
            32
          ],
          "dtype": "float32"
        },
        {
          "name": "expanded_conv_depthwise_BN/moving_mean",
          "shape": [
            32
          ],
          "dtype": "float32"
        },
        {
          "name": "expanded_conv_depthwise_BN/moving_variance",
          "shape": [
            32
          ],
          "dtype": "float32"
        },
        {
          "name": "expanded_conv_project/kernel",
          "shape": [
            1,
            1,
            32,
            16
          ],
          "dtype": "float32"
        },
        {
          "name": "expanded_conv_project_BN/gamma",
          "shape": [
            16
          ],
          "dtype": "float32"
        },
        {
          "name": "expanded_conv_project_BN/beta",
          "shape": [
            16
          ],
          "dtype": "float32"
        },
        {
          "name": "expanded_conv_project_BN/moving_mean",
          "shape": [
            16
          ],
          "dtype": "float32"
        },
        {
          "name": "expanded_conv_project_BN/moving_variance",
          "shape": [
            16
          ],
          "dtype": "float32"
        },
        {
          "name": "block_1_expand/kernel",
          "shape": [
            1,
            1,
            16,
            96
          ],
          "dtype": "float32"
        },
        {
          "name": "block_1_expand_BN/gamma",
          "shape": [
            96
          ],
          "dtype": "float32"
        },
        {
          "name": "block_1_expand_BN/beta",
          "shape": [
            96
          ],
          "dtype": "float32"
        },
        {
          "name": "block_1_expand_BN/moving_mean",
          "shape": [
            96
          ],
          "dtype": "float32"
        },
        {
          "name": "block_1_expand_BN/moving_variance",
          "shape": [
            96
          ],
          "dtype": "float32"
        },
        {
          "name": "block_1_depthwise/depthwise_kernel",
          "shape": [
            3,
            3,
            96,
            1
          ],
          "dtype": "float32"
        },
        {
          "name": "block_1_depthwise_BN/gamma",
          "shape": [
            96
          ],
          "dtype": "float32"
        },
        {
          "name": "block_1_depthwise_BN/beta",
          "shape": [
            96
          ],
          "dtype": "float32"
        },
        {
          "name": "block_1_depthwise_BN/moving_mean",
          "shape": [
            96
          ],
          "dtype": "float32"
        },
        {
          "name": "block_1_depthwise_BN/moving_variance",
          "shape": [
            96
          ],
          "dtype": "float32"
        },
        {
          "name": "block_1_project/kernel",
          "shape": [
            1,
            1,
            96,
            24
          ],
          "dtype": "float32"
        },
        {
          "name": "block_1_project_BN/gamma",
          "shape": [
            24
          ],
          "dtype": "float32"
        },
        {
          "name": "block_1_project_BN/beta",
          "shape": [
            24
          ],
          "dtype": "float32"
        },
        {
          "name": "block_1_project_BN/moving_mean",
          "shape": [
            24
          ],
          "dtype": "float32"
        },
        {
          "name": "block_1_project_BN/moving_variance",
          "shape": [
            24
          ],
          "dtype": "float32"
        },
        {
          "name": "block_2_expand/kernel",
          "shape": [
            1,
            1,
            24,
            144
          ],
          "dtype": "float32"
        },
        {
          "name": "block_2_expand_BN/gamma",
          "shape": [
            144
          ],
          "dtype": "float32"
        },
        {
          "name": "block_2_expand_BN/beta",
          "shape": [
            144
          ],
          "dtype": "float32"
        },
        {
          "name": "block_2_expand_BN/moving_mean",
          "shape": [
            144
          ],
          "dtype": "float32"
        },
        {
          "name": "block_2_expand_BN/moving_variance",
          "shape": [
            144
          ],
          "dtype": "float32"
        },
        {
          "name": "block_2_depthwise/depthwise_kernel",
          "shape": [
            3,
            3,
            144,
            1
          ],
          "dtype": "float32"
        },
        {
          "name": "block_2_depthwise_BN/gamma",
          "shape": [
            144
          ],
          "dtype": "float32"
        },
        {
          "name": "block_2_depthwise_BN/beta",
          "shape": [
            144
          ],
          "dtype": "float32"
        },
        {
          "name": "block_2_depthwise_BN/moving_mean",
          "shape": [
            144
          ],
          "dtype": "float32"
        },
        {
          "name": "block_2_depthwise_BN/moving_variance",
          "shape": [
            144
          ],
          "dtype": "float32"
        },
        {
          "name": "block_2_project/kernel",
          "shape": [
            1,
            1,
            144,
            24
          ],
          "dtype": "float32"
        },
        {
          "name": "block_2_project_BN/gamma",
          "shape": [
            24
          ],
          "dtype": "float32"
        },
        {
          "name": "block_2_project_BN/beta",
          "shape": [
            24
          ],
          "dtype": "float32"
        },
        {
          "name": "block_2_project_BN/moving_mean",
          "shape": [
            24
          ],
          "dtype": "float32"
        },
        {
          "name": "block_2_project_BN/moving_variance",
          "shape": [
            24
          ],
          "dtype": "float32"
        },
        {
          "name": "block_3_expand/kernel",
          "shape": [
            1,
            1,
            24,
            144
          ],
          "dtype": "float32"
        },
        {
          "name": "block_3_expand_BN/gamma",
          "shape": [
            144
          ],
          "dtype": "float32"
        },
        {
          "name": "block_3_expand_BN/beta",
          "shape": [
            144
          ],
          "dtype": "float32"
        },
        {
          "name": "block_3_expand_BN/moving_mean",
          "shape": [
            144
          ],
          "dtype": "float32"
        },
        {
          "name": "block_3_expand_BN/moving_variance",
          "shape": [
            144
          ],
          "dtype": "float32"
        },
        {
          "name": "block_3_depthwise/depthwise_kernel",
          "shape": [
            3,
            3,
            144,
            1
          ],
          "dtype": "float32"
        },
        {
          "name": "block_3_depthwise_BN/gamma",
          "shape": [
            144
          ],
          "dtype": "float32"
        },
        {
          "name": "block_3_depthwise_BN/beta",
          "shape": [
            144
          ],
          "dtype": "float32"
        },
        {
          "name": "block_3_depthwise_BN/moving_mean",
          "shape": [
            144
          ],
          "dtype": "float32"
        },
        {
          "name": "block_3_depthwise_BN/moving_variance",
          "shape": [
            144
          ],
          "dtype": "float32"
        },
        {
          "name": "block_3_project/kernel",
          "shape": [
            1,
            1,
            144,
            32
          ],
          "dtype": "float32"
        },
        {
          "name": "block_3_project_BN/gamma",
          "shape": [
            32
          ],
          "dtype": "float32"
        },
        {
          "name": "block_3_project_BN/beta",
          "shape": [
            32
          ],
          "dtype": "float32"
        },
        {
          "name": "block_3_project_BN/moving_mean",
          "shape": [
            32
          ],
          "dtype": "float32"
        },
        {
          "name": "block_3_project_BN/moving_variance",
          "shape": [
            32
          ],
          "dtype": "float32"
        },
        {
          "name": "block_4_expand/kernel",
          "shape": [
            1,
            1,
            32,
            192
          ],
          "dtype": "float32"
        },
        {
          "name": "block_4_expand_BN/gamma",
          "shape": [
            192
          ],
          "dtype": "float32"
        },
        {
          "name": "block_4_expand_BN/beta",
          "shape": [
            192
          ],
          "dtype": "float32"
        },
        {
          "name": "block_4_expand_BN/moving_mean",
          "shape": [
            192
          ],
          "dtype": "float32"
        },
        {
          "name": "block_4_expand_BN/moving_variance",
          "shape": [
            192
          ],
          "dtype": "float32"
        },
        {
          "name": "block_4_depthwise/depthwise_kernel",
          "shape": [
            3,
            3,
            192,
            1
          ],
          "dtype": "float32"
        },
        {
          "name": "block_4_depthwise_BN/gamma",
          "shape": [
            192
          ],
          "dtype": "float32"
        },
        {
          "name": "block_4_depthwise_BN/beta",
          "shape": [
            192
          ],
          "dtype": "float32"
        },
        {
          "name": "block_4_depthwise_BN/moving_mean",
          "shape": [
            192
          ],
          "dtype": "float32"
        },
        {
          "name": "block_4_depthwise_BN/moving_variance",
          "shape": [
            192
          ],
          "dtype": "float32"
        },
        {
          "name": "block_4_project/kernel",
          "shape": [
            1,
            1,
            192,
            32
          ],
          "dtype": "float32"
        },
        {
          "name": "block_4_project_BN/gamma",
          "shape": [
            32
          ],
          "dtype": "float32"
        },
        {
          "name": "block_4_project_BN/beta",
          "shape": [
            32
          ],
          "dtype": "float32"
        },
        {
          "name": "block_4_project_BN/moving_mean",
          "shape": [
            32
          ],
          "dtype": "float32"
        },
        {
          "name": "block_4_project_BN/moving_variance",
          "shape": [
            32
          ],
          "dtype": "float32"
        },
        {
          "name": "block_5_expand/kernel",
          "shape": [
            1,
            1,
            32,
            192
          ],
          "dtype": "float32"
        },
        {
          "name": "block_5_expand_BN/gamma",
          "shape": [
            192
          ],
          "dtype": "float32"
        },
        {
          "name": "block_5_expand_BN/beta",
          "shape": [
            192
          ],
          "dtype": "float32"
        },
        {
          "name": "block_5_expand_BN/moving_mean",
          "shape": [
            192
          ],
          "dtype": "float32"
        },
        {
          "name": "block_5_expand_BN/moving_variance",
          "shape": [
            192
          ],
          "dtype": "float32"
        },
        {
          "name": "block_5_depthwise/depthwise_kernel",
          "shape": [
            3,
            3,
            192,
            1
          ],
          "dtype": "float32"
        },
        {
          "name": "block_5_depthwise_BN/gamma",
          "shape": [
            192
          ],
          "dtype": "float32"
        },
        {
          "name": "block_5_depthwise_BN/beta",
          "shape": [
            192
          ],
          "dtype": "float32"
        },
        {
          "name": "block_5_depthwise_BN/moving_mean",
          "shape": [
            192
          ],
          "dtype": "float32"
        },
        {
          "name": "block_5_depthwise_BN/moving_variance",
          "shape": [
            192
          ],
          "dtype": "float32"
        },
        {
          "name": "block_5_project/kernel",
          "shape": [
            1,
            1,
            192,
            32
          ],
          "dtype": "float32"
        },
        {
          "name": "block_5_project_BN/gamma",
          "shape": [
            32
          ],
          "dtype": "float32"
        },
        {
          "name": "block_5_project_BN/beta",
          "shape": [
            32
          ],
          "dtype": "float32"
        },
        {
          "name": "block_5_project_BN/moving_mean",
          "shape": [
            32
          ],
          "dtype": "float32"
        },
        {
          "name": "block_5_project_BN/moving_variance",
          "shape": [
            32
          ],
          "dtype": "float32"
        },
        {
          "name": "block_6_expand_BN/moving_mean",
          "shape": [
            192
          ],
          "dtype": "float32"
        },
        {
          "name": "block_6_expand_BN/moving_variance",
          "shape": [
            192
          ],
          "dtype": "float32"
        },
        {
          "name": "block_6_depthwise_BN/moving_mean",
          "shape": [
            192
          ],
          "dtype": "float32"
        },
        {
          "name": "block_6_depthwise_BN/moving_variance",
          "shape": [
            192
          ],
          "dtype": "float32"
        },
        {
          "name": "block_6_project_BN/moving_mean",
          "shape": [
            64
          ],
          "dtype": "float32"
        },
        {
          "name": "block_6_project_BN/moving_variance",
          "shape": [
            64
          ],
          "dtype": "float32"
        },
        {
          "name": "block_7_expand_BN/moving_mean",
          "shape": [
            384
          ],
          "dtype": "float32"
        },
        {
          "name": "block_7_expand_BN/moving_variance",
          "shape": [
            384
          ],
          "dtype": "float32"
        },
        {
          "name": "block_7_depthwise_BN/moving_mean",
          "shape": [
            384
          ],
          "dtype": "float32"
        },
        {
          "name": "block_7_depthwise_BN/moving_variance",
          "shape": [
            384
          ],
          "dtype": "float32"
        },
        {
          "name": "block_7_project_BN/moving_mean",
          "shape": [
            64
          ],
          "dtype": "float32"
        },
        {
          "name": "block_7_project_BN/moving_variance",
          "shape": [
            64
          ],
          "dtype": "float32"
        },
        {
          "name": "regression/kernel",
          "shape": [
            3,
            3,
            128,
            4
          ],
          "dtype": "float32"
        },
        {
          "name": "regression/bias",
          "shape": [
            4
          ],
          "dtype": "float32"
        }
      ]
    }
  ]
}